gnn/results/checkpoint-best-acc.pkl (torch, 404751 bytes, 8 tensors)

hidden_layers.0.weight f4 [1433, 64]
3.7466927e-09 -0.018087767 1.3433908e-09 0.029168157 -0.01759215 1.7204089e-28 -0.021238426 -9.4269515e-15
-4.085957e-15 -0.041538596 5.713392e-08 -0.0138658015 2.5040942e-11 -1.0002224e-24 0.00074202026 -5.6596975e-17
-6.2811723e-16 -0.031234624 2.3240652e-16 0.049017604 -2.9645751e-21 -2.2594998e-06 -9.314836e-14 1.1528396e-24
5.0397815e-24 -0.021010531 0.050273333 3.9662617e-24 -1.3925836e-15 -1.088482e-27 -1.5538195e-13 -3.746203e-08
-0.012409636 -2.0811545e-16 -9.342899e-24 -7.7880803e-29 -2.1871841e-22 -8.0877275e-12 -1.4406021e-16 0.05605226
-0.032539517 -0.035777573 -0.055615887 -1.4644053e-23 -1.8087552e-12 3.5197476e-15 -5.323193e-10 9.599912e-13
1.0288307e-05 5.7806784e-24 -2.9717526e-22 -1.0415677e-13 -2.0713832e-11 -0.027428117 -0.008872977 2.8600075e-27
2.0068086e-22 0.040755432 7.7095203e-19 1.2210246e-16 0.039768692 9.143773e-16 3.3945493e-18 -1.1992761e-06
-2.0311526e-07 0.12845959 -4.745395e-09 0.0130485445 0.13138439 -1.0395088e-26 0.025772426 -2.5334168e-14
2.435542e-16 0.0275718 -5.8935177e-07 0.045259103 3.782817e-10 2.9525306e-23 0.16848639 8.9337005e-15
-6.145406e-17 0.06411096 -1.2736497e-16 0.14939258 1.8075225e-21 -9.0340286e-08 7.2826575e-13 -5.2334594e-24
2.2727912e-21 0.10355647 0.034109317 4.4860035e-24 8.135262e-14 -3.0559118e-27 2.879587e-12 -4.4300044e-09
-0.03953368 5.3092597e-16 -1.2415951e-23 -2.9936278e-27 1.4176464e-22 -3.807074e-13 2.5013042e-15 -0.04374635
0.114133924 0.11829523 -0.024344226 -4.9199425e-24 3.8328588e-13 2.8959286e-15 -1.6939591e-09 1.7094958e-14
-2.3996114e-07 6.531995e-22 -1.1353035e-21 -8.318186e-13 -3.2732947e-10 0.13767505 0.06522703 6.944739e-28
-1.1998668e-20 0.026479734 2.7325887e-17 9.5219096e-17 0.12787715 1.3454985e-15 -5.039091e-17 4.3355412e-06
9.067368e-08 -0.13571024 -2.3422868e-09 -0.11613205 0.009340957 8.600154e-27 -0.06411809 -1.2426304e-14
-4.2698968e-14 -0.1365787 -1.0473672e-07 -0.032397665 5.4184585e-10 1.22658026e-23 -0.11254567 -1.7172122e-15
-4.825562e-16 -0.123424016 -5.0640754e-16 -0.1790674 2.711498e-20 8.0473353e-07 -2.794688e-13 4.601778e-24
7.315261e-21 -0.15909961 -0.0025668608 5.816648e-24 -3.31843e-14 4.6457247e-27 4.41481e-12 8.069596e-07
-0.19049649 1.1242943e-15 5.398275e-23 -4.0324117e-28 -3.9620964e-22 5.7069475e-14 7.314136e-15 -0.09182808
-0.13259608 -0.103722885 -0.02274778 -4.143594e-24 2.454379e-12 -1.7158368e-14 -2.579369e-10 1.824114e-13
3.3963838e-07 6.332697e-22 -3.3843285e-23 -6.2927745e-14 1.6142835e-11 -0.057131667 -0.047243156 2.0666347e-26
-4.4451414e-21 0.052271124 2.7169922e-18 2.7708994e-16 -0.13576455 2.4855574e-15 5.5548156e-18 5.3158783e-07
-2.1751156e-08 -0.048134632 3.7347467e-09 -0.032485675 -0.010774977 1.9112379e-26 0.044195984 -1.0122639e-14
-7.0730075e-06 0.019425666 2.7295323e-07 0.016089644 -3.3808403e-10 -5.619262e-23 -0.12425514 9.8632884e-17
1.1412245e-15 0.029498013 -2.4885905e-18 -0.11593353 -1.0708745e-20 2.9418084e-06 -0.00040729457 1.2597451e-23
-1.0282454e-20 -0.09414309 -0.09238359 -5.01323e-23 -7.2384806e-14 7.876655e-27 -8.558399e-13 -7.415659e-08
0.0016350589 2.6184825e-15 9.5380106e-23 -1.6044627e-26 -4.2201983e-22 1.8426569e-12 -1.1235638e-14 0.046768017
-0.0140346335 -0.13883114 -0.029453201 8.109501e-24 1.132872e-11 2.8961147e-15 7.9831625e-10 -2.034611e-05
1.9868088e-05 -2.1529968e-22 1.8848184e-20 -1.2836381e-12 2.5789054e-10 -0.058764204 0.0041392935 -1.6445342e-26
9.295619e-21 -0.069056034 1.6896135e-17 -1.3644646e-15 0.01636703 7.28747e-16 -3.6602787e-20 -8.642057e-06
00000000: 42bc 8031 cc2c 94bc 5da2 b830 0ff2 ee3c
00000010: 6a1d 90bc 7616 5a11 35fc adbc 24d2 29a8
00000020: 4d36 93a7 6024 2abd 6963 7533 632d 63bc
00000030: 3043 dc2d e4c6 9a97 2384 423a f580 82a4
00000040: df0a 35a6 c1df ffbc 26f9 8525 afc6 483d
00000050: 39ff 5f9d e9a1 17b6 60c0 d1a9 ae64 b217
00000060: 94f7 c218 471e acbc 69eb 4d3d f46f 9918
00000070: 44b1 c8a6 137a ac92 ccf1 2eaa f0e5 20b3
00000080: c951 4bbc d7f0 6fa5 ccb7 3499 8873 c590
00000090: 0935 849b e347 0ead 1217 26a5 0e97 653d
000000a0: 2848 05bd 818b 12bd 7ccd 63bd eba0 8d99
000000b0: 468f feab e29f 7d27 a452 12b0 541b 872b
000000c0: f19b 2c37 11a1 df18 a5a1 b39b 4a8a eaa9
000000d0: 6733 b6ad eeb0 e0bc f75f 11bc d897 6213
000000e0: b89b 721b 2bef 263d 7d8b 6321 49c6 0c25
000000f0: 7fe4 223d 91c6 8326 3979 7a22 d0f6 a0b5
00000100: e617 5ab4 e98a 033e f00c a3b1 90c9 553c
00000110: a189 063e 5ce5 4d94 b220 d33c 9d30 e4a8
00000120: 4266 8c25 41de e13c f233 1eb5 9c61 393d
00000130: 6bf6 cf2f 8fc6 0e1a b287 2c3e 6cef 2028
00000140: 13b4 8da4 9b4c 833d 81d7 12a5 5efa 183e
00000150: 9292 081d 1901 c2b3 14fd 4c2b ac75 ca98
00000160: 2dba 2b1d 6a15 d43d 36b6 0b3d 3a8b ad18
00000170: 9830 b729 411d 7293 07a2 4a2c bb36 98b1
00000180: 11ee 21bd 6c07 1926 d028 7099 fc2d 6d93
00000190: 0862 2b1b b851 d6aa eb3c 3427 5f2f 33bd
000001a0: 0cbf e93d c544 f23d 8b6d c7bc c054 be98
000001b0: 51c5 d72a 74ac 5027 e3d0 e8b0 4afa 9928
000001c0: 02d4 80b4 dd6a 451c ed8f ab9c d922 6aab
000001d0: 87f3 b3af b0fa 0c3e c095 853d 6b16 5c12
000001e0: 00a6 629e 07ec d83c 6d09 fc23 6f8f db24
000001f0: 3af2 023e 22e8 c126 1663 68a4 047a 9136
00000200: 62b8 c233 a0f7 0abe f2f5 20b1 a4d6 edbd
00000210: d00a 193c f657 2a14 5850 83bd 36da 5fa8
00000220: 8f4c 40a9 49db 0bbe 9feb e0b3 6ab3 04bd
00000230: 03f1 1430 5041 6d19 587e e6bd f379 f7a6
00000240: 5d16 0ba6 bbc5 fcbd 48f6 11a6 725d 37be
00000250: 000c 001f de04 5835 b353 9daa cd05 b218
00000260: 6e2e 0a1e 02eb 22be c738 28bb 4b05 e118
00000270: e572 15a9 3f09 b813 1355 9b2c d79d 5835
00000280: 8311 43be 2307 a226 b485 821a 9f95 ff91
00000290: 797e ef9b 5082 8029 80c2 0328 5c10 bcbd
000002a0: 44c7 07be aa6c d4bd 8d59 babc 2b4c a098
000002b0: 29b6 2c2c 818c 9aa8 64cd 8daf 8260 4d2a
000002c0: 8b57 b634 df64 3f1c f5a7 239a 60b3 8da9
000002d0: 6ffe 8d2d e502 6abd 0a82 41bd 6aab cc14
000002e0: c5ee a79d 3f1a 563d 887a 4822 42bb 9f25
000002f0: dd05 0bbe 711a 3327 c0ef cc22 70b2 0e35
00000300: 4cd7 bab2 d228 45bd 2e53 8031 b30f 05bd
00000310: 8789 30bc a347 bd14 d906 353d 6f5a 36a8
00000320: ac54 edb6 9322 9f3c 688a 9234 6ece 833c
00000330: 19dd b9af 8cdd 879a 7b79 febd 946e e324
00000340: c177 a426 d1a5 f13c 25a0 37a2 8f6e edbd
00000350: 5048 4a9e e26b 4536 278a d5b9 8eab 7319
00000360: e63a 429e 18ce c0bd 9c33 bdbd c86c 729a
00000370: 00ff a2a9 6303 1c14 c4e5 70ab 0440 9fb3
00000380: 794f d63a 7aae 3c27 6d9d e61a f6e5 9e94
00000390: 6818 ff9b 5baa 012c 3c67 4aa8 d28f 3f3d
000003a0: 85f1 65bc c029 0ebe d747 f1bc 4edc 1c19
000003b0: 054c 472d e3af 5027 8370 5b30 f0ac aab7
000003c0: 65aa a637 0324 829b 1d04 b21e f0a7 b4ab
000003d0: dec6 8d2f bcb2 70bd e9a2 873b e5dd a294
000003e0: db96 2f1e 406d 8dbd dfd6 9b23 dca3 c4a6
000003f0: 2614 863c 0a0c 5226 0eda 2c9f 5afd 10b7

hidden_layers.0.bias f4 [1, 64]
-0.054990668 0.0042695156 -1.0081645e-06 0.017100573 0.008026067 -4.9617875e-12 0.005482405 -5.143494e-12
-0.034079537 0.007669299 -0.09921822 0.0050070067 -0.04101958 -8.548982e-08 0.010466288 -1.7993017e-13
-0.023683585 0.009671673 -0.00072804466 0.010159027 -8.834271e-05 -0.0036084088 -0.046716392 -1.8962865e-10
-1.0742899e-05 -0.0019459982 0.07641373 -4.4190628e-07 -0.040746987 -3.4464445e-10 -0.05843052 -1.5775315e-06
0.021637274 -0.0008464818 -3.6414733e-08 -6.639891e-10 -1.1070546e-07 -5.2983614e-11 -0.005662939 0.0058224592
0.008025551 0.013485275 -0.0025866635 -2.4601676e-10 -0.09273103 -9.117545e-07 -1.0772614e-08 -0.039794475
-0.00015649274 -4.1058982e-07 -1.2312347e-05 -3.045892e-06 -4.4570466e-08 0.006257945 0.019239187 -1.80503e-12
-5.7464496e-07 0.013745614 -0.017413663 -0.013482977 -0.0015450368 -5.231131e-13 -7.659982e-05 -0.12423767
00000000: e53d 61bd 4be7 8b3b 4550 87b5 8016 8c3c
00000010: c47f 033c cf93 aeac bfa5 b33b 7af8 b4ac
00000020: fc96 0bbd be4e fb3b ec32 cbbd d111 a43b
00000030: 2604 28bd 8796 b7b3 cb7a 2b3c 5795 4aaa
00000040: 1404 c2bc f075 1e3c 40da 3eba 0c72 263c
00000050: a244 b9b8 0e7b 6cbb b059 3fbd b87f 50af
00000060: 663c 34b7 dd10 ffba cd7e 9c3d 233f edb4
00000070: 50e6 26bd 6578 bdaf d754 6fbd 92bb d3b5
00000080: a740 b13c 6fe6 5dba 6c66 1cb3 1484 36b0
00000090: f8bc edb3 3f06 69ae 2d90 b9bb 54ca be3b
000000a0: 9a7d 033c 58f1 5c3c 0385 29bb c83f 87af
000000b0: c4e9 bdbd 4bbf 74b5 7512 39b2 88ff 22bd
000000c0: 3318 24b9 096f dcb4 2191 4eb7 0768 4cb6
000000d0: bf6d 3fb3 730f cd3b 809b 9d3c 0f09 feab
000000e0: 4d41 1ab5 4935 613c 19a7 8ebc b4e7 5cbc
000000f0: d582 caba 453e 13ab 37a4 a0b8 5270 febd

hidden_layers.1.weight f4 [64, 64]
2.0917599e-29 -2.1739082e-36 2.8115988e-33 -1.5168452e-33 -5.6924417e-08 1.2105313e-35 1.6816669e-35 -7.32949e-33
-5.5205994e-33 1.5859455e-32 8.260043e-33 1.3009484e-32 6.6339104e-35 6.384828e-33 -1.3676589e-34 -9.55944e-07
-2.2772233e-06 7.5134866e-33 3.234719e-35 7.603059e-35 -2.4595607e-29 -1.58884e-32 3.1553782e-06 2.2616293e-08
5.8965707e-06 -2.2147152e-35 -1.9479097e-35 2.104017e-19 5.732174e-06 8.369421e-33 -5.4108303e-35 1.4176631e-34
-3.6114072e-36 -2.1467342e-32 -1.7889891e-32 -1.1947124e-35 -3.338263e-36 -2.9792002e-06 -4.9251054e-29 7.9952835e-32
3.7417902e-35 1.3205223e-32 3.6720496e-07 1.1139726e-29 -1.4292781e-34 1.8368887e-32 -5.5032208e-33 -2.3298564e-06
5.2481694e-33 6.202227e-33 4.4289973e-06 1.3891565e-32 7.0875227e-35 3.4728032e-35 -3.1619037e-34 1.0357984e-35
5.0291027e-07 -2.9087878e-32 8.878935e-34 -2.1979182e-33 -3.9903225e-06 1.1825995e-06 2.826527e-06 5.402393e-32
-4.430337e-11 6.3057415e-24 4.385571e-32 -4.5506605e-34 -0.52839166 8.9580346e-36 -1.784425e-35 5.2571977e-21
-2.271629e-21 -1.1520151e-32 5.234286e-21 -1.8816354e-32 -1.8397305e-34 9.407622e-08 1.4476065e-12 0.7882196
-0.72835076 -4.1361587e-21 5.5330004e-36 1.3231459e-18 7.4864556e-20 -1.2402503e-24 0.91567 -0.67689294
0.9516368 -6.1140124e-35 3.7458456e-18 -0.00019823233 0.75724274 -1.8095418e-26 -1.8867697e-21 -7.672503e-13
-4.206212e-21 -1.2344236e-25 -7.2204117e-23 1.2187987e-20 2.2071024e-20 0.73548883 -4.324373e-18 4.935654e-16
-5.1263776e-36 -1.619777e-26 -0.80858475 -7.0785505e-19 8.515758e-28 1.3080927e-20 4.5179637e-22 0.868569
-1.0838498e-22 1.3078249e-23 0.9456784 1.8588244e-25 -2.8769286e-35 -3.857831e-30 8.793504e-34 2.948607e-35
-0.7314792 -8.542625e-30 -3.1746351e-27 8.815673e-28 0.8255392 0.90160877 -0.72283876 -4.4485306e-24
8.231989e-30 9.097675e-30 3.746878e-32 3.8183181e-34 7.231368e-09 7.3524514e-35 -5.575352e-36 -4.7022386e-29
3.1312476e-27 -1.4572763e-33 -1.8099713e-28 -2.896308e-32 5.464676e-35 3.634545e-29 1.033508e-28 -9.568573e-07
-1.5960468e-07 3.545719e-34 3.660121e-35 4.2572442e-35 -1.997086e-24 -7.457122e-29 4.914252e-07 2.8064924e-09
3.3711174e-07 5.8460637e-36 -3.653376e-28 4.4531372e-23 6.8232225e-07 -4.6610514e-32 -7.876635e-27 7.583247e-27
3.0643963e-36 3.3664657e-30 4.0571614e-30 7.241849e-27 -3.4825294e-35 1.8761717e-06 5.0933162e-26 2.180052e-35
2.6791783e-35 -5.78834e-32 2.1887018e-07 1.2991504e-35 -2.519662e-35 -2.8403362e-26 7.3331416e-27 -1.3153192e-06
-5.319561e-30 4.3172187e-29 -2.4365707e-07 3.1106077e-29 -7.3035866e-36 -1.010064e-35 2.0299433e-34 -9.855924e-35
-1.0229097e-08 -2.2334156e-33 -4.412732e-34 -5.7217933e-33 7.214864e-08 8.350164e-08 7.015371e-08 2.4558436e-28
-1.14650414e-10 8.7465616e-24 9.12279e-32 -1.6494138e-33 0.5426561 -1.1696971e-36 2.4379103e-34 1.5848315e-21
-2.6694956e-21 1.2795635e-31 -8.007052e-21 -8.395641e-32 -2.2423211e-34 1.0778627e-07 1.0628572e-12 0.6671176
0.27938017 -1.0905134e-20 6.904527e-35 4.247489e-19 -2.5856518e-14 -8.982083e-25 0.869503 0.64471436
0.6127406 1.1500496e-33 1.0380444e-17 -0.0008502686 0.82921565 -2.8097867e-26 -1.0465284e-17 2.8655997e-13
-2.2362403e-20 -3.819715e-26 4.1395523e-23 -1.7450815e-20 8.355472e-20 0.7777912 -1.0947501e-17 -1.1249756e-15
-1.1539614e-33 7.026887e-27 0.47165784 3.2928244e-20 1.5703102e-27 -3.712786e-16 5.3429057e-22 0.77718586
-7.273599e-23 1.5993917e-23 0.467321 2.2403213e-25 1.1941325e-34 1.2044339e-29 1.0577256e-33 2.708991e-34
0.4373752 -3.951657e-30 1.6570601e-27 2.1190643e-27 0.83726346 0.6698807 0.3889805 4.473074e-22
00000000: 3121 d40f 87ef 3884 1894 6909 7607 fc88
00000010: 0f7d 74b3 ccb9 8005 54d3 b205 413a 188a
00000020: 1551 e589 aab1 a40a ec8d 2b0a 2419 870a
00000030: 0e5c b006 929b 040a 05cb 3587 fc4d 80b5
00000040: 66d2 18b6 8c0c 1c0a b7fc 2b06 bd1f ca06
00000050: d96d f98f 9dfe a48a fcc0 5336 c145 c232
00000060: 28db c536 4882 eb85 2523 cf85 0366 7820
00000070: 0057 c036 7ad3 2d0a 34d8 8f86 9370 3c07
00000080: be9c 9984 fced de8a 7dc7 b98a 5516 7e85
00000090: 77fe 8d84 45ee 47b6 86bb 7990 c691 cf0b
000000a0: 9cf2 4606 8121 890a 4424 c534 c4f0 610f
000000b0: d0fb 3d87 e1c0 be0a 4898 e489 a15a 1cb6
000000c0: 1c00 da09 b2d0 000a cc9c 9436 1d42 900a
000000d0: 2e6b bc06 59a5 3806 0125 d287 3b4a 5c05
000000e0: bbff 0635 6c08 178b d086 9308 8d98 3689
000000f0: 9ce4 85b6 cfb9 9e35 5daf 3d36 0f41 8c0b
00000100: 29d9 42ae 0af1 f318 3db6 630b bd38 1788
00000110: ad44 07bf 2e84 3e05 abc0 bd85 7f9c c61d
00000120: b2a3 2b9d a143 6f8a e8be c51d 7366 c38a
00000130: c98a 7487 f306 ca33 85bb cb2b c2c8 493f
00000140: 3275 3abf 7942 9c9d 0a59 eb04 0a43 c321
00000150: d9c4 b01f 60eb bf97 5969 6a3f db48 2dbf
00000160: 789e 733f d089 a286 8332 8a22 96dc 4fb9
00000170: a9da 413f 5635 b394 6f8f 0e9d 36f6 57ab
00000180: fce7 9e9d 72d0 1896 2f94 ae9a 7d39 661e
00000190: 7674 d01e ff48 3c3f 8c8a 9fa2 b342 0e26
000001a0: 4f0d da84 3a6a a094 69ff 4ebf 04ec 50a1
000001b0: 05f0 8612 7b17 771e 0d8c 081c 8a5a 5e3f
000001c0: 8707 039b 5af8 7c19 fb17 723f 7f1c 6616
000001d0: b9f6 1886 027e 9c8e 6e1b 9208 5cc6 1c06
000001e0: 3942 3bbf d843 2d8f 4085 7b93 9eb0 8b12
000001f0: 8956 533f d5cf 663f f60b 39bf 1d18 ac98
00000200: eef6 260f d485 380f 8d8c 420b 51c5 fd07
00000210: c977 f831 3176 c306 3526 ed84 8c6e 6e90
00000220: 3f15 7813 ae21 f288 ed70 6591 8962 168b
00000230: a846 9106 174b 3810 4103 0311 5e6d 80b5
00000240: cd5f 2bb4 48a7 eb07 fc9a 4206 9b5a 6206
00000250: 5d84 1a98 7d0f bd90 7cea 0335 56dc 4031
00000260: 49fc b434 ffa9 f804 6a8f e791 2b57 571a
00000270: d428 3735 0004 728b 4903 1c94 a133 1614
00000280: 5258 8204 618f 880e f993 a40e 8970 0f14
00000290: bc29 3986 c5d0 fb35 7435 7c15 a9d2 e705
000002a0: 1673 0e06 1e46 968b 9402 6b34 3d26 8a05
000002b0: ddf7 0586 8aa5 0c95 723f 1114 068a b0b5
000002c0: 7bc9 d78e b4e8 5a10 f9cf 82b4 ffb9 1d10
000002d0: 8254 1b85 1dd1 5685 b2e9 8607 f901 0387
000002e0: 0bbc 2fb2 7f8b 3989 5fa3 1288 8bac ed89
000002f0: 22f0 9a33 8351 b333 69a7 9633 57a8 9b11
00000300: 721e fcae e02e 2919 57d7 ec0b 2707 0989
00000310: 83eb 0a3f 7e03 c783 e506 a207 337e ef1c
00000320: 8eb3 499d ca18 260c ba3f 179e 9bf6 d98b
00000330: 1e07 9587 2178 e733 7795 952b 38c8 2a3f
00000340: eb0a 8f3e fefd 4d9e c78d b706 3dba fa20
00000350: 12e5 e8a8 b2fd 8a97 c097 5e3f 000c 253f
00000360: 91dc 1c3f b315 bf08 437c 3f23 8fe4 5eba
00000370: 7a47 543f 4722 0b95 e80c 41a3 a551 a12a
00000380: f934 d39e a424 3d95 2d2d 481a 7bd1 a49e
00000390: bb49 c51f 531d 473f 1df2 49a3 4620 a2a6
000003a0: 17bc bf88 8d2e 0b14 237d f13e ce7f 1b1f
000003b0: 59d3 f812 0d07 d6a5 bb7a 211c a7f5 463f
000003c0: 66dd af9a 05af 9a19 b344 ef3e 4fab 8a16
000003d0: 39ba 1e07 c949 740f acbe af08 180b b407
000003e0: a4ef df3e 5a4c a08e 2c49 0313 bbe3 2713
000003f0: e656 563f 4d7d 2b3f 7428 c73e bc30 071c

hidden_layers.1.bias f4 [1, 64]
-3.7951794e-10 -9.5922305e-06 -6.345154e-13 -2.8803448e-05 0.019029582 -1.2065124e-13 -2.2607519e-07 -0.0004272263
-0.002526403 -1.2929509e-06 -0.0010711161 -1.6730219e-05 -1.0120422e-13 -7.101822e-06 -0.007235968 -0.011700253
0.1029103 -1.4194927e-18 -6.972187e-08 -6.1394855e-18 -0.0017418416 -9.0514804e-05 -0.02374054 0.05697818
-0.02119452 -3.4062484e-06 -4.3929826e-15 -0.005839309 -0.014083708 -0.00013819156 -0.005507565 -5.7991953e-12
-2.72947e-20 -4.462724e-05 -0.00035493434 -7.3350473e-19 -3.673607e-07 -0.016544605 -0.00019072139 -8.841114e-14
-2.6802993e-06 -5.1742012e-05 0.07331593 -9.493067e-18 -2.2260025e-08 -0.00056384795 -4.32442e-05 -0.022951715
-0.000117823685 -4.664491e-05 -0.02544339 -6.230972e-05 -3.512454e-08 -3.531285e-10 -0.00016915557 -1.5531022e-06
0.058230557 -2.847136e-07 -1.9496485e-06 -0.0002807201 -0.015569256 -0.008366734 0.08281914 -8.5888074e-05
00000000: 67a4 d0af 51ee 20b7 a799 32ab ef9e f1b7
00000010: ede3 9b3c 5ad7 07aa 13bf 72b4 58fd dfb9
00000020: 0292 25bb 7489 adb5 b164 8cba df57 8cb7
00000030: 43e4 e3a9 304c eeb6 b31b edbb 6bb2 3fbc
00000040: a3c2 d23d eb7a d1a1 01ba 95b3 cd81 e2a2
00000050: 814e e4ba c4d2 bdb8 857b c2bc f461 693d
00000060: 21a0 adbc e796 64b6 1d46 9ea7 ad57 bfbb
00000070: 5abf 66bc 84e7 10b9 ce78 b4bb 820a ccac
00000080: 44e5 009f 222e 3bb8 7b16 bab9 0d7e 58a1
00000090: ac39 c5b4 8d88 87bc 62fc 47b9 8d15 c7a9
000000a0: 31df 33b6 9005 59b8 aa26 963d be1d 2fa3
000000b0: 5036 bfb2 32cf 13ba 1b61 35b8 3c05 bcbc
000000c0: 1c18 f7b8 97a4 43b8 a86e d0bc 47ac 82b8
000000d0: d7db 16b3 6b22 c2af 5a5f 31b9 2f74 d0b5
000000e0: 2a83 6e3d bdda 98b4 b5d6 02b6 9d2d 93b9
000000f0: 3116 7fbc a014 09bc 159d a93d cf1e b4b8

hidden_layers.2.weight f4 [64, 64]
-2.420235e-10 -8.238081e-36 2.3150057e-35 3.644981e-09 3.2847184e-35 -4.5018295e-10 1.5102471e-35 9.209611e-10
7.5883116e-10 1.00413566e-10 3.2978907e-35 2.666014e-35 1.5276169e-09 2.8217226e-10 -8.253e-36 -7.565773e-36
1.06853955e-23 1.1699102e-35 -2.4137973e-35 4.416152e-35 4.1335028e-35 5.0644905e-10 3.4486998e-35 2.2561468e-10
2.1695099e-24 -3.4321029e-35 -9.534842e-10 -1.9601527e-10 -3.232527e-10 -5.3012893e-18 -5.027973e-35 -1.1102971e-10
-2.8463542e-35 6.2057e-10 -1.5081327e-09 -5.104012e-10 1.7537328e-29 1.0091175e-24 7.9545664e-13 1.5913186e-10
-8.3148016e-11 3.135555e-25 4.4132117e-10 -1.3804011e-10 1.7606795e-36 4.6787838e-35 7.255101e-36 -7.9475335e-37
-1.0812727e-22 -1.6961095e-10 -1.2661885e-09 -5.588095e-36 -7.0498846e-10 5.237557e-35 5.8000854e-35 -9.97341e-11
5.0466314e-35 1.971238e-10 -5.675697e-36 3.1658035e-10 4.9424294e-23 -4.019759e-11 3.0607343e-36 8.958079e-37
4.6585788e-35 -1.7647907e-35 -6.1105904e-36 2.597932e-26 -1.9388992e-35 3.466689e-21 -3.4409236e-29 4.185162e-27
-2.3134514e-24 4.2487108e-20 -3.9335324e-36 -3.600499e-35 -5.503204e-35 6.003048e-16 -4.8555205e-31 7.947724e-35
-1.0561842e-26 1.2757998e-35 1.3681995e-36 -3.359794e-30 -2.9287375e-36 2.0077546e-16 4.222817e-35 -1.2015574e-06
-7.058786e-27 -4.1159424e-35 -2.5430653e-23 2.781916e-16 -3.895929e-08 -1.4445367e-36 5.5316543e-35 -1.36498834e-14
7.9354363e-35 3.3267322e-25 2.1836373e-11 -7.569004e-16 8.154221e-28 2.3439394e-27 -6.163134e-13 7.5736494e-07
7.368754e-18 -6.074512e-25 2.3868741e-20 -4.0555607e-18 -6.646347e-35 -2.5920994e-35 -1.8411073e-32 5.244914e-35
2.3310761e-23 3.3039253e-16 -3.0843934e-15 1.1011206e-35 3.8084177e-14 -1.3989944e-35 -5.5522023e-36 3.4020204e-29
-1.2734115e-35 -1.0453656e-23 -1.3144575e-35 -3.8054626e-09 -7.513208e-34 4.5326454e-25 -9.165579e-36 1.535311e-35
-4.748996e-35 -9.574136e-36 1.6566196e-36 3.6870754e-36 -1.2797597e-32 7.803186e-30 5.1400853e-32 4.495478e-35
4.924784e-34 -1.2712761e-31 2.0817219e-35 2.9748588e-36 2.8026066e-37 3.46634e-32 -8.023422e-32 -1.5194509e-35
-2.3318458e-36 -1.686827e-35 -5.5009135e-35 -2.5693444e-32 1.663999e-35 6.0510464e-32 7.5415233e-32 -8.792136e-32
-2.3770942e-35 -1.9122244e-35 -2.5800822e-31 1.0198898e-32 -2.8317336e-33 1.4915297e-35 -1.9690574e-35 4.1556117e-32
3.6118637e-34 -3.426178e-31 -1.6409543e-32 -2.6962615e-31 -1.3019663e-34 7.0965794e-35 -3.9973796e-32 1.0081687e-31
-8.759684e-31 -4.4595886e-31 -1.1333667e-31 5.540432e-32 -3.0646848e-32 -4.2135297e-35 8.8005875e-33 -1.5850276e-37
-4.2190983e-29 7.2522714e-36 5.960052e-31 1.1323437e-32 -1.9477415e-31 -6.334645e-35 -5.478122e-35 -2.3198035e-35
2.7879282e-35 -1.2263719e-32 1.8595244e-32 2.2279591e-32 -4.226222e-35 1.5332611e-27 4.279421e-35 1.5903645e-35
-4.1073813e-36 -9.275634e-35 -1.0603458e-32 3.9137085e-36 5.870923e-19 2.2160458e-13 2.2436241e-13 2.4659915e-34
-9.208059e-29 -4.0848335e-21 -4.5145022e-33 -1.2727644e-34 -3.9225975e-36 3.3238523e-27 1.0538663e-12 1.2276842e-35
-2.4227926e-35 3.53935e-32 -8.087389e-35 -2.0084874e-14 5.30506e-35 -1.05459946e-32 3.814287e-16 2.4161126e-21
-2.4175436e-35 4.720377e-28 -6.664366e-28 -7.882398e-33 -4.159156e-33 -4.5651775e-35 9.896916e-36 2.0887326e-15
1.4372983e-33 1.8290485e-13 3.3864652e-17 1.1517409e-33 -8.478926e-37 -1.3436282e-35 1.7278309e-17 1.5620688e-19
1.3668253e-22 -2.2915048e-20 -2.9450027e-18 4.028227e-22 -8.4499286e-35 -5.1256554e-34 -9.287786e-19 4.5655205e-35
9.714986e-18 -3.4941914e-35 -1.1800635e-24 4.7208293e-15 -3.3333887e-32 2.6509556e-35 -8.313599e-31 -5.953064e-35
9.981168e-35 2.1722177e-12 -1.4739952e-30 8.637849e-30 3.5844752e-35 -2.4464583e-08 6.7646985e-35 1.8619546e-29
00000000: c80d 85af 6134 2f85 732c f605 2f7b 7a31
00000010: 45a5 2e06 9e7d f7af d698 a005 e026 7d30
00000020: ff95 5030 d0cf dc2e 9058 2f06 e7bf 0d06
00000030: 3ef4 d130 3720 9b2f 9b85 2f85 fce7 2085
00000040: 84af 4e19 f8cf 7805 e856 0086 8ccd 6a06
00000050: 53c6 5b06 2f36 0b30 455d 3706 e310 782f
00000060: 92db 2718 5d7b 3686 be0b 83b0 6585 57af
00000070: c6b5 b1af 4395 c3a2 9caa 8586 2c28 f4ae
00000080: 9156 1786 bb94 2a30 b446 cfb0 4b4c 0cb0
00000090: 82d9 b10f 4327 9c17 b1e6 5f2b a3f7 2e2f
000000a0: 2cd8 b6ae da14 c216 6f9e f22f d6c6 17af
000000b0: 34c8 1504 4ec4 7806 874c 1a05 6438 8783
000000c0: c5b7 029b 3d7d 3aaf 0c06 aeb0 f7b0 ed84
000000d0: 27c9 41b0 f73c 8b06 5631 9a06 4f51 dbae
000000e0: 9829 8606 6bbd 582f de6a f184 b90a ae2f
000000f0: 5000 6f1a 76ca 30ae 7230 8204 f069 9803
00000100: 4ab1 7706 2caa bb85 38f5 0185 b3a4 0015
00000110: db2d ce85 c2f7 821d be79 2e90 96ca a513
00000120: a0fe 3298 c3a3 481f 6050 a784 746f 3f86
00000130: de4c 9286 ad06 2d26 1692 1d8d 6849 d306
00000140: e732 5194 93aa 8705 7ec9 e803 184a 888e
00000150: 4126 7984 757a 6725 0286 6006 3345 a1b5
00000160: 4cd0 0b94 4ed7 5a86 3ff3 f599 d65d a025
00000170: 3154 27b3 72c6 f583 7d0e 9306 fae4 75a8
00000180: c8f5 d206 2dea cd16 2413 c02d 6429 5aa6
00000190: 7335 8112 bdb4 3913 107a 2dab b94d 4b35
000001a0: f5ed 0723 3eff 3b97 136f e11e b09f 95a2
000001b0: b2b0 b086 d4d1 0986 0731 bf8a 096f 8b06
000001c0: a672 e119 5575 be25 0441 5ea7 b52e 6a05
000001d0: 1184 2b29 40c4 9485 212a ec84 c080 2c10
000001e0: 8f69 8785 ff33 4a99 f0c6 8b85 34c1 82b1
000001f0: 4eab 7988 5147 0c17 29ee 4285 2443 a305
00000200: fc7f 7c86 8e9e 4b85 fbed 0c04 b2d4 9c04
00000210: d9e5 848a 7544 1e0f ba71 850b 4705 6f06
00000220: 6ea7 2308 6505 258c dc5d dd05 b012 7d04
00000230: 4bbc be02 90fb 330b c94c d08b 6393 a185
00000240: 1b5f 4684 cc5f b385 473d 9286 7268 058b
00000250: 5df2 b005 1a18 9d0b 05ca c30b c441 e48b
00000260: a9c6 fc85 b357 cb85 f874 a78c a5d2 530a
00000270: 5040 6b89 4d9b 9e05 d762 d185 8ec5 570b
00000280: ad0c f007 255f de8c 0c68 aa8a 54ff ae8c
00000290: 9e0f 2d87 d1a8 bc06 4a8e 4f8b 27de 020c
000002a0: 4e22 8e8d d0b8 108d 921e 138c 7dd6 8f0b
000002b0: a620 1f8b 9807 6086 f3c7 360a 27be 5782
000002c0: 07ef 5590 1f3d 1a05 2d6a 410d b82d 6b0a
000002d0: d0d4 7c8c 5c67 a886 2ba2 9186 0faf f685
000002e0: 503b 1406 1db5 7e8a a31a c10a 505d e70a
000002f0: 5ab4 6086 76f4 f212 7688 6306 d71d a905
00000300: 6cb5 ae84 b296 f686 a739 5c8a 8378 a604
00000310: 7147 2d21 2c81 792a 109c 7c2a ace4 a307
00000320: b873 e990 1652 9a9d 6c86 bb89 ee2d 2987
00000330: 4ed9 a684 deab 8313 8951 942b be8c 8205
00000340: 58d1 0086 08c6 370b ebff d686 91e8 b4a8
00000350: 5e08 8d06 2008 5b8a f1e0 db25 6a8e 361d
00000360: e689 0086 3f98 1512 c333 5392 04b6 238a
00000370: bcc3 ac89 fab9 7286 f07b 5205 5182 1627
00000380: e9cf ee08 bcee 4d2a 532c 1c24 a45d bf08
00000390: ee42 9083 0ae1 8e85 415d 9f23 a26a 3820
000003a0: 323d 251b 306d d89e 874d 59a2 cb7d f31b
000003b0: 3ca3 e086 4154 2a88 4310 89a1 a5be 7206
000003c0: b935 3323 78c8 3986 229b b697 f715 aa27
000003d0: 5614 2d8b f0f2 0c06 57e5 868d 7442 9e86
000003e0: 28ac 0407 32db 182c 5d2b ef8d 4732 2f0f
000003f0: 5995 3e06 3026 d2b2 27d6 b306 1bd3 bc0f

hidden_layers.2.bias f4 [1, 64]
-0.101776674 -9.695771e-05 -0.00024184212 0.045727488 -0.0069511267 0.28172743 -0.008703757 0.09494047
0.20931593 0.1875622 -0.00011954349 -3.6972928e-08 -0.015200328 0.11653519 -0.0062804525 -3.997942e-08
-0.014999343 -0.0016148337 -2.0553641e-07 -0.0045045745 -5.7700116e-09 -0.013513821 -0.0016581952 -0.051407337
-0.00046793334 -0.0028296646 -0.03251924 0.23748668 -0.024943957 -0.051290188 -5.2801936e-09 0.22430836
-0.00096776587 -0.021644745 -0.0272977 -0.010057427 -0.00044965997 -6.74164e-05 0.28025615 -0.03158955
0.2615418 -0.006299428 -0.01827 0.08507003 -0.0013432197 -0.0005493354 -0.007255851 -3.804826e-15
-0.004744929 0.12868492 0.02418819 -0.0019746223 0.19941266 -3.330697e-05 -0.0009895391 0.046054754
-9.032145e-10 0.21595728 -0.0013452094 -0.035549536 -0.00014511641 -0.044917528 -0.00018730076 -0.0014384554
00000000: 4a70 d0bd c655 cbb8 0097 7db9 bf4c 3b3d
00000010: 47c6 e3bb 943e 903e 349a 0ebc 2670 c23d
00000020: ea56 563e 4e10 403e 6cb3 fab8 2acc 1eb3
00000030: cc0a 79bc 00aa ee3d 41cc cdbb d6b5 2bb3
00000040: cebf 75bc d4a8 d3ba 6bb1 5cb4 1c9b 93bb
00000050: 8f41 c6b1 1369 5dbc cc57 d9ba 8090 52bd
00000060: f354 f5b9 e571 39bb e532 05bd b52f 733e
00000070: 4557 ccbc a915 52bd 136d b5b1 17b1 653e
00000080: abb1 7dba 5250 b1bc 6d9f dfbc e8c7 24bc
00000090: 57c0 ebb9 e761 8db8 bc7d 8f3e 0b64 01bd
000000a0: cfe8 853e 6f6b cebb f8aa 95bc 3239 ae3d
000000b0: f90e b0ba 4601 10ba 7dc2 edbb 5315 89a7
000000c0: 597b 9bbb fbc5 033e 5026 c63c aa68 01bb
000000d0: d532 4c3e 16b3 0bb8 6cb3 81ba e9a3 3c3d
000000e0: 1246 78b0 e823 5d3e bd51 b0ba 649c 11bd
000000f0: 642a 18b9 71fb 37bd 2a66 44b9 8e8a bcba

out_layer.weight f4 [64, 7]
0.20129617 0.1059687 0.121522985 0.51419455 0.6030117 -0.8657755 -0.2848048 -1.7342592e-35
1.3282535e-33 -2.436982e-35 -6.436248e-33 -3.9454847e-33 3.1887908e-34 -2.3395856e-35 -2.619931e-32 -3.4009693e-33
4.175768e-28 6.422415e-32 -3.0568275e-32 -1.7298992e-31 5.3886095e-31 0.37491757 -1.2687818 -1.9379457
0.030878339 0.40179235 0.46791387 0.54891837 8.7816657e-13 3.1367953e-12 -6.743787e-13 2.3234002e-10
3.432092e-14 5.4368754e-09 -1.2127779e-08 -0.34621835 -0.4141154 -0.32465345 -0.63915116 -1.1395317
0.7217352 0.6841956 0.00018581985 -0.00021044315 -0.0005827479 -0.00014431766 -4.849629e-05 -9.994774e-05
0.0005680641 -1.0105646 -0.33147767 -0.45562935 -0.6689845 -1.2388059 0.39696762 0.4782698
0.029480191 -0.58747125 -0.5242597 -0.91925514 -0.9742875 0.5855134 0.660801 0.13895379
-0.5946564 -0.785365 -0.7034364 -0.72117096 0.5434881 0.6013782 4.3259175e-21 1.0802409e-24
1.607517e-23 4.6091607e-30 1.5535565e-29 2.6673884e-25 1.9069218e-27 -5.0421885e-36 2.153498e-33 2.1484979e-34
-8.792209e-35 8.324481e-34 -1.0507069e-33 4.1594876e-35 0.40494812 -1.414179 -2.263182 0.14851266
0.47880688 0.35744873 0.37145266 0.28744224 -0.74602896 -0.86474067 -0.37805128 -0.38254198
0.47212318 0.45503914 5.713576e-07 -2.0941304e-06 1.9339527e-06 -5.314495e-07 -1.3947302e-06 -4.4461276e-06
5.8736746e-06 1.0661485e-15 -1.0662597e-22 -1.5127323e-18 1.0864404e-16 -4.1127217e-14 -1.3454246e-17 -1.0857865e-12
0.0029977295 0.006298317 -0.008450023 0.0016927556 -0.0017455425 -0.0044005266 0.006384678 8.398242e-36
-1.8981819e-31 1.1335422e-26 -1.3867477e-28 1.2322635e-33 1.3544688e-26 1.0156364e-18 -4.5197973e-35 1.1962662e-34
-1.5251424e-35 -1.121441e-33 3.5221722e-35 2.4833193e-34 -1.3379293e-34 3.538264e-08 -7.4020473e-10 3.740336e-09
-2.9316915e-08 1.939988e-09 -1.9741934e-07 -6.5980464e-07 1.0008352e-34 -1.5970895e-34 4.252691e-34 1.6504857e-34
-4.5630016e-35 5.627244e-35 -2.0966285e-34 0.4530716 -1.1629881 -1.7051579 0.17790905 0.5183459
0.3489275 0.33508378 -1.5139454e-10 -2.2508402e-10 -1.43026035e-08 1.36767015e-08 3.3757432e-09 4.270677e-10
-3.4280704e-06 0.4205152 -0.9962199 -1.0749153 0.12203284 0.61835915 0.30204418 0.41015288
-2.3812398e-18 -1.3498686e-12 4.1714013e-10 -1.537019e-11 -1.0045859e-11 -9.115889e-14 -9.153857e-09 2.8928205e-25
1.2153979e-24 -4.3616684e-23 7.141376e-26 -7.857729e-27 -5.678953e-25 -1.2685208e-20 0.38706744 -1.1634765
-1.5671905 0.15224832 0.49697158 0.2583566 0.32691753 -0.09443082 -0.47765622 -0.46384794
-0.74562347 -1.1234725 0.56528914 0.68252665 0.37844226 -1.041355 -1.3202746 0.22965458
0.5862967 0.34569618 0.41934875 -3.8897534e-09 4.7833734e-12 1.1213277e-12 5.604659e-12 6.8936254e-12
0.00071116124 0.0073536276 5.6066965e-35 2.8973008e-35 -3.0009165e-35 -9.987387e-34 -8.574966e-35 -8.904068e-34
7.166306e-33 0.09049345 -0.5291089 -0.7687906 -0.75425214 -0.84765726 0.55431 0.52512544
-2.7632425e-32 -1.8913078e-33 -2.7435199e-33 1.4620639e-31 -7.0316525e-34 -3.245624e-33 -1.1725991e-28 0.40820178
-1.0605146 -1.5793915 0.11491432 0.45727625 0.1488476 0.3095198 0.40581656 -1.0476719
-1.5713893 0.13204126 0.6023248 0.25129426 0.38438678 0.411135 -0.9294599 -1.6121063
0.084183194 0.5414889 0.32632238 0.3121781 -9.894487e-10 -4.7541363e-12 -2.4582727e-08 -2.290123e-15
00000000: 9520 4e3e 1e06 d93d 0be1 f83d 41a2 033f
00000010: fa5e 1a3f 77a3 5dbf efd1 91be 076b b885
00000020: a8b1 dc08 7b92 0186 f7ac 058a 97e3 a389
00000030: 77ee d307 94c9 f885 db08 088b 4f45 8d89
00000040: db55 0412 45bc a60b 35b8 1e8b c38d 608c
00000050: d1de 2e0d 32f5 bf3e 7167 a2bf 9b0e f8bf
00000060: 92f4 fc3c bab7 cd3e 6892 ef3e ea85 0c3f
00000070: 922e 772b 7bbb 5c2c 1bd2 3dab e775 7f2f
00000080: 5491 1a29 43cf ba31 895a 50b2 8843 b1be
00000090: ef06 d4be fa38 a6be 699f 23bf 2ddc 91bf
000000a0: a3c3 383f 7127 2f3f a3d8 4239 67aa 5cb9
000000b0: 8dc3 18ba fa53 17b9 7f68 4bb8 099b d1b8
000000c0: 23ea 143a 2e5a 81bf 71b7 a9be 4048 e9be
000000d0: 9142 2bbf 3191 9ebf 573f cb3e c7df f43e
000000e0: 7180 f13c 8464 16bf e235 06bf 4e54 6bbf
000000f0: e86a 79bf 35e4 153f 412a 293f e749 0e3e
00000100: 673b 18bf ae0d 49bf 6814 34bf a99e 38bf
00000110: 0922 0b3f ecf3 193f b56d a31d c028 a717
00000120: 3178 9b19 43f8 ba0e a28c 9d0f 751a a516
00000130: f814 1713 9278 d684 d6e7 3209 ccca 8e07
00000140: acbc e986 6d50 8a08 2194 ae88 0328 5d06
00000150: 5c55 cf3e d103 b5bf f9d7 10c0 b413 183e
00000160: 2d26 f53e 8503 b73e 0b2f be3e a12b 933e
00000170: c1fb 3ebf a55f 5dbf f08f c1be 8bdc c3be
00000180: 21ba f13e e4fa e83e 655f 1935 e388 0cb6
00000190: 0ec9 0136 eea8 0eb5 9132 bbb5 f22f 95b6
000001a0: 7b16 c536 f0a5 9926 24e7 009b 693d dfa1
000001b0: 1f84 fa24 7438 39a9 e12f 78a3 95cf 98ab
000001c0: 8e75 443b 1d62 ce3b f771 0abc 74df dd3a
000001d0: b0ca e4ba 4b32 90bb 9036 d13b 619c 3205
000001e0: ea65 768c 6b85 6014 89ca 2f91 b1be cc08
000001f0: dd23 8614 a9e1 9521 4b50 7086 d402 1f07
00000200: 532e a285 d354 ba88 5345 3b06 7d0b a507
00000210: 60d7 3187 a0f7 1733 4777 4bb0 5884 8031
00000220: 94d4 fbb2 a150 0531 37fa 53b4 6e1d 31b5
00000230: a808 0507 244a 5487 e551 0d08 1e63 5b07
00000240: 5c9c 7286 0a99 9506 4958 8b87 00f9 e73e
00000250: cbdc 94bf 9d42 dabf ca2d 363e 51b2 043f
00000260: a0a6 b23e 1a90 ab3e c675 26af 857b 77af
00000270: 84b7 75b2 c5f6 6a32 b4fa 6731 6fc8 ea2f
00000280: cd0d 66b6 c54d d73e 4408 7fbf d396 89bf
00000290: 5bec f93d c94c 1e3f 89a5 9a3e 8fff d13e
000002a0: 59b4 2fa2 24fa bdab 4153 e52f 9732 87ad
000002b0: 87ba 30ad 8645 cda9 1743 1db2 920e b316
000002c0: df12 bc17 d7ea 529a d9cf b015 6ba3 1b94
000002d0: 4dc1 2f97 e79d 6f9e b42d c63e ccec 94bf
000002e0: b399 c8bf fce6 1b3e 0f73 fe3e 5147 843e
000002f0: bc61 a73e f264 c1bd 5b8f f4be 7a7d edbe
00000300: 2ee1 3ebf f2cd 8fbf cab6 103f 11ba 2e3f
00000310: 2fc3 c13e 1f4b 85bf c2fe a8bf 922a 6b3e
00000320: 8a17 163f 17ff b03e e1b4 d63e a2a6 85b1
00000330: cc4c a82c 17d0 9d2b 4832 c52c 428c f22c
00000340: 396d 3a3a b3f6 f03b 330d 9506 040c 1a06
00000350: 5c8e 1f86 a5f1 a588 32f6 e386 b7f1 9388
00000360: 9ed6 140a a154 b93d ae73 07bf 76cf 44bf
00000370: ab16 41bf 1100 59bf 43e7 0d3f 9f6e 063f
00000380: cb79 0f8b ab1f 1d89 37ec 6389 68c9 3d0c
00000390: afaa 6988 65d1 8689 04a5 1491 d3ff d03e
000003a0: f1be 87bf 8029 cabf 3358 eb3d 1d20 ea3e
000003b0: 816b 183e 6179 9e3e 30c7 cf3e 1d1a 86bf
000003c0: 4923 c9bf d335 073e f531 1a3f a4a9 803e
000003d0: 58ce c43e 4980 d23e 16f1 6dbf 8059 cebf
000003e0: 3d68 ac3d 049f 0a3f ba13 a73e cfd5 9f3e
000003f0: 22fd 87b0 7445 a7ac fd29 d3b2 5005 25a7

out_layer.bias f4 [1, 7]
-0.5443849 2.8943927 3.1037054 1.5335251 0.24730836 -1.83168 -2.7182193
00000000: cf5c 0bbf bb3d 3940 1ca3 4640 8d4a c43f
00000010: 673e 7d3e 7e74 eabf 4ef7 2dc0
