gnn/results/checkpoint-best-loss.pkl (torch, 404751 bytes, 8 tensors)

hidden_layers.0.weight f4 [1433, 64]
000000 e5 22 86 17 7b 27 b8 a5 d4 af a5 3c 87 3e 2e 1d
       8.668356e-25 -3.1945665e-16 0.020225443 2.3061034e-21
000010 ac 46 72 b7 49 23 6c 31 cf 9f cd 3c 93 04 da b3
       -1.4440779e-05 3.4362577e-09 0.025100617 -1.0152248e-07
000020 12 09 77 bc 25 b2 95 15 9d 71 40 2c c6 97 7a 3d
       -0.015077846 6.0461683e-26 2.734791e-12 0.0611799
000030 ec 47 b6 33 f0 a1 8d 3d ef 19 16 3d 93 d8 ad 28
       8.488118e-08 0.06915653 0.036645826 1.9300782e-14
000040 6c 5c ee 3c e7 88 b1 94 a1 8b 56 3d d0 6f 85 3d
       0.029096805 -1.7926431e-26 0.052379254 0.06515467
000050 15 90 d6 14 1b 92 ae b5 66 d4 46 ad b5 b2 94 bc
       2.1665308e-26 -1.3006533e-06 -1.1302159e-11 -0.01815162
000060 a7 f8 87 3d 52 f7 57 3d 44 78 f8 19 f0 7f 18 30
       0.066392235 0.052726097 2.5691174e-23 5.547909e-10
000070 2f 77 dc ac c4 63 85 19 15 21 45 3d 03 c0 f2 3c
       -6.266008e-12 1.3792173e-23 0.048127253 0.029632574
000080 bd 87 70 b1 88 b9 0c bc 46 6a 28 ab 4b 0a e5 bc
       -3.5001755e-09 -0.008589156 -5.9833074e-13 -0.02795901
000090 c9 ec 88 3d f4 ee ad a2 46 f6 1d 32 9c 9f 66 9a
       0.06685788 -4.7144745e-18 9.194599e-09 -4.7691817e-23
0000a0 ff 23 90 16 2a bb 08 3c fc c2 a8 bc 91 17 01 3d
       2.3287171e-25 0.008345405 -0.020600788 0.031516615
0000b0 9f 1a bc 3c 1d de 84 95 61 ab 28 3d 6e 70 c9 3d
       0.022961913 -5.366481e-26 0.041179065 0.098358974
0000c0 d0 83 92 13 7c 20 04 06 30 c1 45 35 b8 b8 a3 3d
       3.698556e-27 2.4850306e-35 7.3669344e-07 0.07994217
0000d0 42 78 41 2e 48 89 04 3d 27 0f 24 35 7b 5b 4e bb
       4.398993e-11 0.032357484 6.111681e-07 -0.0031487632
0000e0 fa 4a 53 36 e9 1e bf 27 b1 86 d1 99 a7 33 ce 97
       3.1485092e-06 5.3046662e-15 -2.1664495e-23 -1.3325477e-24
0000f0 5d 7a bb 36 6f 23 ca 16 7c 1d 92 19 93 f3 67 13
       5.5872792e-06 3.2657222e-25 1.5107955e-23 2.927639e-27
000100 24 63 0e 19 1b 32 7b 26 ed bf dc 3d e0 49 21 9e
       7.361249e-24 8.7151024e-16 0.107787944 -8.538546e-21
000110 ef 30 2a b6 79 fe 63 b2 5b 73 e0 3d 3a 42 20 b8
       -2.5360457e-06 -1.3270999e-08 0.10959502 -3.820865e-05
000120 9f 3d 3e 3e 50 83 88 13 20 55 f6 2d 34 17 09 3e
       0.18578194 3.446071e-27 2.8004765e-11 0.13387758
000130 66 44 4c b4 db de 00 3e a6 2d 72 3e 3d 2c a0 a8
       -1.9023864e-07 0.12585013 0.23650226 -1.7782754e-14
000140 40 97 3a 3d d4 ba c7 95 fc 30 cd bc de ce df 3d
       0.0455544 -8.067022e-26 -0.025047772 0.10928129
000150 dd 3e a9 95 62 37 44 b8 aa 2e 17 ab 49 c2 71 3e
       -6.835774e-26 -4.678162e-05 -5.3710736e-13 0.2360927
000160 37 69 ca 3d 3c c3 6a 3d a9 18 62 9a e0 0b 0f 30
       0.098833494 0.057315096 -4.6755625e-23 5.203997e-10
000170 c7 b0 8a ad 49 30 44 98 8e 06 15 3e a1 ef 99 3d
       -1.5767289e-11 -2.5356784e-24 0.14553282 0.07516409
000180 64 b0 79 b0 6c 65 41 3e 25 0f 56 2b f7 38 83 be
       -9.083634e-10 0.18886346 7.604909e-13 -0.25629398
000190 2b d4 5d 3e 38 ee 7f a7 6a bf e2 31 51 20 8d 1c
       0.21662967 -3.5517498e-15 6.599227e-09 9.338951e-22
0001a0 b8 2e 7a 16 c8 12 35 3e 69 1d 9b bc 30 50 ad 3d
       2.0209581e-25 0.17682946 -0.018934922 0.0846256
0001b0 a4 a7 23 be 7a 3c e8 16 69 47 7e 3e 48 22 6b be
       -0.15981919 3.7519788e-25 0.24831928 -0.22962296
0001c0 85 4d 89 92 1b e1 f9 82 3b 65 c1 b7 95 2f 4c 3e
       -8.665026e-28 -3.6716466e-37 -2.3054532e-05 0.19940026
0001d0 be 85 1c ae 41 64 15 3e 6c 78 cf b4 f8 74 44 3e
       -3.558908e-11 0.14589025 -3.8644373e-07 0.19185245
0001e0 fa b5 43 b7 91 8b f3 a7 0a 4f 8b 99 28 56 b1 98
       -1.1665275e-05 -6.7597367e-15 -1.4404187e-23 -4.5840423e-24
0001f0 5d 77 c0 b7 ac dc a6 16 ac bd 94 1b b3 f0 d4 14
       -2.2943766e-05 2.695801e-25 2.4607119e-22 2.1501469e-26
000200 d9 ce 2e 99 53 aa 5e 25 18 86 c5 bc 1a 6f cd 9f
       -9.037362e-24 1.9313139e-16 -0.024111792 -8.700468e-20
000210 38 a3 50 b8 4b 8b 02 b2 01 d9 e2 bd fd de da 37
       -4.9743074e-05 -7.5986675e-09 -0.110765465 2.6091462e-05
000220 3c 3c 5c 3d fc ef 80 96 df 8f 06 2e e7 fc e0 bd
       0.05376838 -2.0830967e-25 3.0595856e-11 -0.10985737
000230 45 4c 95 b4 85 55 c8 bd 3a 58 ac bd 8e 54 12 a9
       -2.7808906e-07 -0.097819366 -0.084152654 -3.2491852e-14
000240 6f e8 c1 bd 2d 83 0f 16 46 a5 54 3e f0 81 2c 3e
       -0.09468161 1.159284e-25 0.20766172 0.16846442
000250 81 de 4a 96 17 e2 32 37 35 ef 45 2e e0 08 b7 bd
       -1.638764e-25 1.0662267e-05 4.5005073e-11 -0.0893724
000260 da f2 27 be a4 3e 7d bd af 88 f3 1a 71 a8 4e 31
       -0.16401234 -0.061827317 1.0072327e-22 3.0072693e-09
000270 5d 43 7c 2c af 28 c7 9b e5 62 cb bc 21 95 e4 3c
       3.5848748e-12 -3.294808e-22 -0.02482743 0.027903141
000280 bd 27 2a 32 bc 68 f5 bd 5e 1e f3 2c dd 82 90 3e
       9.904338e-09 -0.11982867 6.909847e-12 0.2822484
000290 42 82 60 bd a5 d7 bb 26 cc c4 a1 32 12 01 8b 1b
       -0.054811724 1.3034182e-15 1.883236e-08 2.2996313e-22
0002a0 a5 cb 90 96 87 4b ad bc c3 cb d6 3b fe 5c b0 bc
       -2.3392972e-25 -0.021154178 0.006555052 -0.021528717
0002b0 c1 1e 70 3e 96 5a ca 96 f4 ef e9 bd 67 4a b4 3e
       0.23449232 -3.2692028e-25 -0.114227206 0.35213014
0002c0 2c 39 97 94 42 ac 2e 05 45 be c9 36 f2 e9 2e bd
       -1.5269654e-26 8.2130794e-36 6.012417e-06 -0.042703576
0002d0 1c 78 54 2e 2a 4c 4b bd a0 30 3d 34 5f dc 6d 3d
       4.8309898e-11 -0.049633183 1.7619686e-07 0.05807149
0002e0 22 c7 c2 36 81 17 dc 29 08 3c 17 1a df 17 8d 17
       5.8048327e-06 9.77404e-14 3.127456e-23 9.117937e-25
0002f0 fd 2c 1e b8 5a af 09 18 3d 71 af 1a 5b 18 e1 94
       -3.7712034e-05 1.7795365e-24 7.256125e-23 -2.27288e-26
000300 7c 32 99 18 0d 18 d1 26 55 c1 0a be d4 9c 9e 1f
       3.960055e-24 1.4508807e-15 -0.13550313 6.717505e-20
000310 0b d2 2f b8 f9 4d 53 32 a7 cf 88 bd 8d 4d 4d b7
       -4.191887e-05 1.2299545e-08 -0.066802315 -1.2237008e-05
000320 70 eb de bd e9 d4 96 17 5b 1b 6c ae f0 5b 24 be
       -0.1088475 9.747269e-25 -5.3684484e-11 -0.16050696
000330 97 ab 25 b4 63 9e 26 bd 03 4e 98 bd ad 53 9c 28
       -1.5429247e-07 -0.040678393 -0.074367546 1.7355768e-14
000340 22 aa bb bd 6a 1e 03 96 23 8f e0 bc e3 02 0c 3e
       -0.0916331 -1.0591693e-25 -0.027412003 0.13672976
000350 86 0d 69 97 89 fd cc 34 2b c7 25 2f 3e 9e d4 3d
       -7.530343e-25 3.8182432e-07 1.5077421e-10 0.10381745
000360 17 93 b5 bd 85 de 78 3c b0 a1 b5 9a e3 31 71 b0
       -0.08865946 0.015189772 -7.5121066e-23 -8.774618e-10
000370 ef c7 61 ac 55 01 67 9b 9b ad 8a bd bf 7e 50 3c
       -3.2085409e-12 -1.9108303e-22 -0.06771394 0.012725531
000380 70 39 1e b3 48 44 26 3d 28 61 2a ad 2f 88 2a 3e
       -3.683948e-08 0.04059246 -9.684954e-12 0.16653512
000390 69 9e 23 3d e3 1e 1c a8 f6 13 03 b3 51 63 46 9a
       0.039945994 -8.666437e-15 -3.051897e-08 -4.1025667e-23
0003a0 19 1b 14 17 52 d5 8e 3c 5c 6c f4 3b 3c eb 36 bd
       4.785558e-25 0.017435703 0.0074592065 -0.04465793
0003b0 f9 a0 ab 3c c4 72 e4 16 0c 57 0c 3c 67 53 cb 3d
       0.020950781 3.6907814e-25 0.0085656755 0.09928017
0003c0 2c 31 8c 94 16 dc cb 04 e5 09 e4 b6 66 ad d0 3b
       -1.4155782e-26 4.7927188e-36 -6.7960814e-06 0.006368327
0003d0 28 ec fc 2d 85 bb 0d be 2c f5 d2 37 64 5d 2c 3e
       2.8753958e-11 -0.13841064 2.5148118e-05 0.168325
0003e0 ad c2 ab b7 46 41 18 a9 37 fd fb 9a 89 b8 35 19
       -2.0475441e-05 -3.3807396e-14 -1.0422026e-22 9.394747e-24
0003f0 44 11 13 b7 63 94 a5 17 47 7d eb 1a 45 ae ba 94
       -8.765903e-06 1.0700333e-24 9.739612e-23 -1.8849938e-26

hidden_layers.0.bias f4 [1, 64]
000000 1b a3 fb a8 b0 8c 86 b7 bd 3e a3 bb 65 cd 8f b9
       -2.7937334e-14 -1.6039558e-05 -0.004981844 -0.00027428116
000010 c5 96 63 bd 97 2f 81 bd 20 15 0e 3b 40 94 a8 bb
       -0.055563707 -0.06307905 0.0021680072 -0.005144626
000020 38 60 3d 3c 65 2f 42 b4 56 73 28 bd f7 54 67 ba
       0.011558585 -1.80849e-07 -0.041125618 -0.00088246114
000030 c9 6f d4 bd d4 93 17 bb 00 be 89 3b 9e a9 19 bd
       -0.10372884 -0.0023128884 0.004203558 -0.037515275
000040 e1 9a 84 bb 0a 67 2d af 50 ff 70 3c 5c 8e 7e 3c
       -0.0040467833 -1.5770865e-10 0.014709309 0.015536871
000050 21 1a f7 b0 f8 c1 d0 bb 42 04 a2 b2 e7 2d 82 b9
       -1.7979042e-09 -0.006370779 -1.8861218e-08 -0.00024829732
000060 df e0 60 ba aa c4 ed bb 55 ac 57 b4 3b 50 e6 bd
       -0.000857843 -0.00725611 -2.008613e-07 -0.112457715
000070 ef 39 b6 bc 56 de c0 b4 e8 94 e4 3b 0d 87 88 ba
       -0.022244422 -3.5924558e-07 0.006975759 -0.0010416225
000080 2c 52 1b b5 68 d1 98 3b a3 df 75 bd 80 6d 1a 3b
       -5.7861575e-07 0.004663635 -0.06002773 0.0023563802
000090 84 41 3c 3c 34 b0 e9 ba 33 cc 8f b4 db 1c e2 b6
       0.0114902295 -0.0017829002 -2.67844e-07 -6.738684e-06
0000a0 e3 63 30 b5 a4 e9 13 bb e9 0a 0c bd f3 63 87 ba
       -6.5710464e-07 -0.002256968 -0.034190092 -0.001032947
0000b0 2f f4 f3 bb be da cf ae cc a2 0f bc b5 5f 2e b8
       -0.0074448804 -9.4521266e-11 -0.008766841 -4.1573967e-05
0000c0 33 47 5e ab b0 b8 a4 a5 4a 4a 68 ba 7f ab cf bb
       -7.896905e-13 -2.8574614e-16 -0.00088611676 -0.0063375826
0000d0 68 80 47 bb 23 7a f1 bb e0 51 9d ba e5 25 ee bb
       -0.0030441526 -0.007369296 -0.001200255 -0.007267701
0000e0 71 08 01 be 23 38 91 bb fa ca c3 b3 64 ec 20 b4
       -0.12600876 -0.004431741 -9.117316e-08 -1.498716e-07
0000f0 65 4c d2 bd ac da 0a b5 55 7d ce b2 63 9b 34 ab
       -0.10268477 -5.1727216e-07 -2.403855e-08 -6.416449e-13

hidden_layers.1.weight f4 [64, 64]
000000 96 8a a0 8f 44 e0 04 05 dd 11 3a 87 59 64 43 87
       -1.58306e-29 6.247801e-36 -1.3998334e-34 -1.4699659e-34
000010 65 ba 87 0d 45 f7 51 18 36 2b c4 94 6c c7 83 82
       8.36489e-31 2.7137456e-24 -1.9807986e-26 -1.9363183e-37
000020 60 e4 33 0d 77 b4 a8 97 75 03 78 05 14 67 b0 98
       5.543353e-31 -1.0902301e-24 1.1661539e-35 -4.5599016e-24
000030 99 4e c3 85 c3 7f 5f 02 41 12 5f 99 36 04 9f 1a
       -1.8366584e-35 1.6420118e-37 -1.1532516e-23 6.576766e-23
000040 8d 20 18 05 11 21 55 85 af 35 b4 99 e1 ab 59 85
       7.152984e-36 -1.0021285e-35 -1.8633246e-23 -1.023486e-35
000050 f5 06 20 05 0f 8e 6b 85 15 27 bd 91 8e cd d9 18
       7.524442e-36 -1.1075739e-35 -2.9843028e-28 5.6300742e-24
000060 3d d8 bc 0d f4 94 a9 03 cc f3 d0 85 5d 54 97 1a
       1.1638452e-30 9.967125e-37 -1.9649783e-35 6.258843e-23
000070 c3 d8 5c 85 fd 62 4b 1b 9b f7 13 15 ad 20 2e 9a
       -1.0384163e-35 1.6823751e-22 2.988174e-26 -3.6008752e-23
000080 6b b9 68 85 1c cb a7 9a 6f 86 8c 06 d8 ee 73 17
       -1.09426435e-35 -6.939772e-23 5.285968e-35 7.8819e-25
000090 1a 44 c4 19 1a 67 49 85 46 17 35 86 6a a6 49 98
       2.0293431e-23 -9.469911e-36 -3.4059415e-35 -2.6062659e-24
0000a0 ee 04 87 94 d4 64 23 84 00 f5 a9 05 ec 04 46 04
       -1.3633461e-26 -1.9206856e-36 1.5982682e-35 2.3277048e-36
0000b0 66 2c fa 03 3e 5f b8 85 07 43 4b 85 6f 4b 80 9a
       1.4703873e-36 -1.7338263e-35 -9.557325e-36 -5.306143e-23
0000c0 16 c4 af 85 fd b5 b3 17 2d cc 5b 07 da dc 20 99
       -1.6528952e-35 1.1613544e-24 1.6535731e-34 -8.316407e-24
0000d0 52 64 27 85 b9 cf 29 86 8d fb 05 8d d5 85 3e 8f
       -7.870728e-36 -3.1937978e-35 -4.1286582e-31 -9.393498e-30
0000e0 55 46 0f 09 73 12 7d 98 76 66 04 1b 4f 7b d5 0f
       1.7246069e-33 -3.2708798e-24 1.0951891e-22 2.1050918e-29
0000f0 cb d6 7a 85 0a 3b 90 14 4d e3 b4 07 c7 9c 02 06
       -1.1794395e-35 1.4563571e-26 2.7216985e-34 2.4565464e-35
000100 43 52 ce 26 0b 18 bc 85 6d 32 af 85 6c 56 8c 8a
       1.4316419e-15 -1.7688267e-35 -1.6475444e-35 -1.3514018e-32
000110 9f 7a 75 91 39 e5 ac a8 aa 92 a9 95 38 2f 63 04
       -1.9364878e-28 -1.9195246e-14 -6.848995e-26 2.6705404e-36
000120 91 d5 47 11 a3 39 68 28 1c 07 a2 85 3e 5a 88 17
       1.5764142e-28 1.2891085e-14 -1.5237018e-35 8.811574e-25
000130 25 12 d4 84 fc 32 7c 85 e8 99 7e a8 51 fb 74 95
       -4.9857624e-36 -1.18583474e-35 -1.41332055e-14 -4.947366e-26
000140 ba 4a be 04 39 9d cd 04 33 73 71 a8 42 07 31 86
       4.473741e-36 4.8339655e-36 -1.3403167e-14 -3.3295332e-35
000150 a3 d0 ad 05 27 c7 b7 85 7e dc e4 93 62 13 9b 27
       1.6345483e-35 -1.7282394e-35 -5.7772714e-27 4.3042157e-15
000160 6b d2 57 9e a6 9f 38 05 99 dc d5 04 7a 53 69 28
       -1.1425519e-20 8.680961e-36 5.0278646e-36 1.2952199e-14
000170 be a0 16 05 12 10 7b 28 fa 89 d4 13 7c 96 8a a8
       7.08249e-36 1.3936784e-14 5.365238e-27 -1.538634e-14
000180 56 8e cf 04 f6 c9 0f 18 3b a2 85 96 c8 b6 b3 98
       4.879618e-36 1.8584281e-24 -2.158969e-25 -4.6454977e-24
000190 50 97 10 1d b3 60 0a 85 9b 72 12 92 00 f4 aa 17
       1.9136468e-21 -6.50649e-36 -4.621074e-28 1.1047587e-24
0001a0 6a 5a e1 95 2c ef 28 05 dc 32 cf 85 d2 da 17 06
       -9.1019425e-26 7.943251e-36 -1.9484869e-35 2.8560707e-35
0001b0 00 54 8c 05 66 6e f7 82 bd 73 83 98 29 9e a3 18
       1.3196393e-35 -3.6356754e-37 -3.3979572e-24 4.2294213e-24
0001c0 c6 7a 9a 05 81 8b 40 9a 72 26 06 86 20 03 30 97
       1.452719e-35 -3.981736e-23 -2.5230844e-35 -5.687261e-25
0001d0 78 a2 f3 85 a8 54 95 05 dc 27 3f 12 ce 81 00 a8
       -2.2911292e-35 1.404299e-35 6.0318104e-28 -7.133574e-15
0001e0 40 27 66 8a 8a 4b 19 19 f9 b5 80 28 f0 2c 10 29
       -1.1081479e-32 7.9251696e-24 1.4289773e-14 3.20134e-14
0001f0 76 b2 04 06 46 66 ac 94 7b c2 dd 86 83 09 21 94
       2.4957553e-35 -1.7407901e-26 -8.3416724e-35 -8.130299e-27
000200 ed d5 15 b1 36 39 99 05 6c 4d a8 8c 9b 12 f7 37
       -2.1803956e-09 1.4409067e-35 -2.5931095e-31 2.9453358e-05
000210 d6 9b 67 91 3e 56 a5 3f 26 30 e5 99 2e 84 10 14
       -1.8270708e-28 1.2916944 -2.3697492e-23 7.29621e-27
000220 a9 e1 f1 91 17 79 99 3f 1a 14 38 07 5c 76 82 9f
       -3.816217e-28 1.1990079 1.3848529e-34 -5.525295e-20
000230 d2 f7 37 03 4c 65 64 85 7a b7 93 be d9 d2 ff 18
       5.406335e-37 -1.0739114e-35 -0.2885092 6.6128857e-24
000240 98 49 b1 08 80 64 a2 09 56 03 a7 3f ff c1 6f 08
       1.0670102e-33 3.909459e-33 1.3047893 7.2149488e-34
000250 34 e4 7c 0a 9e 19 aa 09 ad 60 6f 95 b9 a2 a2 3f
       1.2176279e-32 4.09501e-33 -4.834193e-26 1.2705909
000260 24 4a 70 2f 0d 34 07 05 ed c9 a9 a0 51 72 61 be
       2.1854213e-10 6.35723e-36 -2.8763337e-19 -0.22016264
000270 9e d3 9b 87 94 ea 03 be 6a f9 cb 97 4d 26 94 be
       -2.3446185e-34 -0.12882453 -1.3181528e-24 -0.2893547
000280 81 7c a6 8a 1d ef 55 a0 84 d1 0c 36 1b 2b 9b 9b
       -1.6032052e-32 -1.8120918e-19 2.098358e-06 -2.5670455e-22
000290 9e e8 c0 23 15 3e 54 86 f5 8f cb 19 f5 e3 80 9e
       2.0915199e-17 -3.991838e-35 2.1047852e-23 -1.3646808e-20
0002a0 37 03 20 9d be ab 19 86 3e 94 2a 86 7a 39 07 06
       -2.1177486e-21 -2.8902278e-35 -3.2082358e-35 2.5432905e-35
0002b0 71 a0 b4 85 3e 4e bf 87 7c 91 38 ad 77 57 39 a0
       -1.6986056e-35 -2.8784473e-34 -1.0491493e-11 -1.5699049e-19
0002c0 17 10 b6 07 de 3e 9e b0 5d b3 67 8a e5 9f 43 1d
       2.7393773e-34 -1.1513881e-09 -1.115598e-32 2.5890699e-21
0002d0 e4 8c c3 06 0d 6d 38 05 27 8d b5 91 7d 31 77 be
       7.355787e-35 8.671668e-36 -2.8643757e-28 -0.24139972
0002e0 c6 e7 4f 8c bd 96 1f 9f ef bf a9 be af ba a7 3f
       -1.6016447e-31 -3.3794247e-20 -0.33154246 1.3103846
0002f0 22 1b 8f 0a de c4 c7 18 78 4e 2a 8d f7 06 c6 ad
       1.3780605e-32 5.163908e-24 -5.247975e-31 -2.2513087e-11
000300 ab 0e aa 1c ea 18 ff 05 1a 63 c9 89 d4 e9 4a 92
       1.1253448e-21 2.3989237e-35 -4.8482185e-33 -6.4028177e-28
000310 cb c4 f0 90 ab 37 8f 1c 03 7a 62 17 42 1c 95 85
       -9.4966516e-29 9.477336e-22 7.317854e-25 -1.4022273e-35
000320 26 31 88 92 a9 cc 80 1e 28 01 69 86 34 49 1e 9d
       -8.594923e-28 1.3637173e-20 -4.382328e-35 -2.0948971e-21
000330 68 19 81 06 26 09 e3 03 f9 f3 b3 1f 3b 09 d3 98
       4.856174e-35 1.3343961e-36 7.621307e-20 -5.4551542e-24
000340 70 04 59 87 89 11 f1 07 ed f9 42 1a 5b 4c 00 07
       -1.632657e-34 3.6271956e-34 4.0320148e-23 9.652089e-35
000350 80 f8 26 89 ec 92 54 09 ab 52 8d 15 c7 2d df 9c
       -2.0098367e-33 2.5587654e-33 5.7079874e-26 -1.4768735e-21
000360 ff 42 a3 18 de 01 90 86 da 44 82 08 7d 72 02 20
       4.220216e-24 -5.4169523e-35 7.840277e-34 1.1049309e-19
000370 6d f9 85 86 31 f1 88 36 62 8c 9c 18 3e a0 38 9f
       -5.039554e-35 4.081194e-06 4.0466805e-24 -3.9096065e-20
000380 e6 fe b0 09 d2 c4 48 1f fc e8 b6 90 11 70 68 1a
       4.2610164e-33 4.2514453e-20 -7.214531e-29 4.8067002e-23
000390 b8 bd 8c 1e 08 76 04 05 2d b2 fa 98 76 2c 11 9c
       1.4901542e-20 6.228289e-36 -6.4803397e-24 -4.803394e-22
0003a0 5e 46 8b 98 5f da d8 06 f5 19 19 85 68 09 cd 85
       -3.600171e-24 8.1571037e-35 -7.198793e-36 -1.9281563e-35
0003b0 5d cf a5 86 fa 1d ba 07 71 b6 e1 0e 27 7c 8e 9f
       -6.2370795e-35 2.8003788e-34 5.5642467e-30 -6.034473e-20
0003c0 8d 01 77 07 3a 4a ef 9d 92 55 39 09 74 79 42 9c
       1.858267e-34 -6.333952e-21 2.23088e-33 -6.434619e-22
0003d0 a9 4f 1b 06 92 08 e3 85 73 46 d5 10 a0 f0 88 1d
       2.9210785e-35 -2.1350126e-35 8.412223e-29 3.62477e-21
0003e0 64 67 85 8a f0 28 4b 1f d2 eb 0e 9f 75 e7 83 98
       -1.2846325e-32 4.3020785e-20 -3.0264736e-20 -3.409642e-24
0003f0 4e 7e 04 09 a5 9e 92 17 fa be 98 8b d2 61 9f 9a
       1.594831e-33 9.475076e-25 -5.883562e-32 -6.5918896e-23

hidden_layers.1.bias f4 [1, 64]
000000 c9 46 f4 31 7d f3 28 b6 95 7e 0e b7 2e 0f cc b9
       7.109382e-09 -2.517568e-06 -8.493332e-06 -0.00038921222
000010 b4 cd a4 b7 99 c9 df bc 04 0c 88 b9 3d a2 0a b5
       -1.9646111e-05 -0.027317809 -0.00025948894 -5.1645094e-07
000020 f3 79 ae b6 9a 9c be bc 5e 24 3c b0 79 bd 8c b8
       -5.199801e-06 -0.023268033 -6.844568e-10 -6.711012e-05
000030 88 ec 64 b7 a1 d5 ac a9 d4 e1 87 38 19 c5 93 b6
       -1.3644931e-05 -7.675393e-14 6.4793654e-05 -4.4038866e-06
000040 bf 7e ed b6 a9 56 11 b6 86 74 ba bc 15 47 a3 b8
       -7.0779056e-06 -2.1657127e-06 -0.02276064 -7.785686e-05
000050 16 5d a1 b8 dc c4 03 ba 67 41 90 b9 18 04 af bc
       -7.694417e-05 -0.0005026588 -0.0002751455 -0.021364257
000060 49 f9 50 bd de 5e 2a b7 d3 43 51 a2 90 8e c6 bb
       -0.051018987 -1.0154878e-05 -2.8360688e-18 -0.0060594752
000070 7b 30 87 b6 e1 ad 87 3e c9 7c 96 ae 90 4f 1e bc
       -4.0289574e-06 0.26499847 -6.8433766e-11 -0.009662524
000080 83 ab 61 b8 3e 46 c6 ba b6 87 1e bd 17 64 ed aa
       -5.3803913e-05 -0.0015127135 -0.038703643 -4.2169108e-13
000090 23 a0 e9 b9 85 25 2c ad b0 f2 25 b5 b7 6c db b9
       -0.00044560534 -9.785399e-12 -6.1820447e-07 -0.00041851934
0000a0 e5 f1 00 bb 4a c2 85 b8 6b 70 23 a6 2c 1b cb b4
       -0.001967543 -6.378123e-05 -5.670434e-16 -3.7831467e-07
0000b0 07 47 8d b5 70 b6 b2 b6 13 15 94 ae 50 8b 36 bb
       -1.052599e-06 -5.326052e-06 -6.734004e-11 -0.0027854033
0000c0 72 40 9d a8 63 c6 a2 bd a7 75 f0 b8 21 fc 02 b8
       -1.745845e-14 -0.079479955 -0.00011466006 -3.122923e-05
0000d0 3e 6f 49 b6 20 2c 84 b3 19 8e c1 b8 46 9f ed 3a
       -3.0016085e-06 -6.154755e-08 -9.229425e-05 0.0018129132
0000e0 cb 5e 7e b9 73 a7 93 b9 81 77 83 bc ee 11 75 bc
       -0.00024258641 -0.00028162784 -0.016048195 -0.014957888
0000f0 f3 bf 67 b8 a0 fd a0 b9 4c 8b 48 ba 78 ab d8 b9
       -5.525346e-05 -0.00030706543 -0.00076501514 -0.00041326485

hidden_layers.2.weight f4 [64, 64]
000000 09 ef a7 16 8f 2e 59 84 3f 9e ae 31 af 6e dc 85
       2.7131158e-25 -2.5529606e-36 5.082057e-09 -2.072936e-35
000010 71 e8 ac 8a 82 f7 d9 b0 8d e5 6b 17 6e 93 5b 8f
       -1.6650432e-32 -1.5859174e-09 7.622233e-25 -1.08259276e-29
000020 77 08 a8 b1 a1 67 e6 b0 f4 33 6d 99 96 bb 35 09
       -4.890406e-09 -1.6764156e-09 -1.2263105e-23 2.1875285e-33
000030 11 fc 83 31 c0 b5 f0 b0 9d a0 5f b1 0b d1 a4 04
       3.8412584e-09 -1.7513955e-09 -3.254207e-09 3.874819e-36
000040 1a 96 8b 8e ca 2a 88 05 13 bf 55 18 77 3e aa 83
       -3.4410688e-30 1.2805097e-35 2.7626073e-24 -1.0006043e-36
000050 98 92 f5 31 bb c6 c1 0f c7 51 ad 85 20 c4 34 85
       7.1471042e-09 1.9107818e-29 -1.6298882e-35 -8.499582e-36
000060 02 d0 03 88 35 19 95 31 75 b6 0c 05 be 1c 35 84
       -3.966589e-34 4.3393364e-09 6.6162804e-36 -2.1289646e-36
000070 73 32 49 85 64 33 e1 30 7c 3e f5 05 34 fd a3 85
       -9.4602406e-36 1.6385511e-09 2.3062642e-35 -1.5421458e-35
000080 d0 59 2c 31 f6 71 15 b2 7e a9 c0 b3 11 9f b9 05
       2.5080347e-09 -8.698853e-09 -8.971527e-08 1.7455748e-35
000090 14 74 96 03 b6 1f f5 05 73 b5 c4 06 fd 87 6a b3
       8.842858e-37 2.3051338e-35 7.399362e-35 -5.460605e-08
0000a0 68 60 52 1d 49 76 15 32 93 fc 7c 83 05 49 e8 31
       2.784311e-21 8.699836e-09 -7.4346085e-37 6.76039e-09
0000b0 33 c0 69 04 35 e4 94 05 3e 27 d4 04 4e 2d 63 b1
       2.7477272e-36 1.4001683e-35 4.9877e-36 -3.30586e-09
0000c0 ca 79 83 ae aa 51 5f b1 da 20 12 86 f3 ef 0f 33
       -5.9788244e-11 -3.2497192e-09 -2.7483684e-35 3.3513015e-08
0000d0 fb ca 33 af d1 0a 97 31 6d 46 5b 05 76 c2 11 06
       -1.6352068e-10 4.395908e-09 1.0310266e-35 2.7414336e-35
0000e0 85 54 e8 81 40 0c 1a 85 db cf 4a 32 fe f4 cf 06
       -8.534462e-38 -7.243295e-36 1.1805208e-08 7.822473e-35
0000f0 84 25 2b 03 e6 94 8f 1b 4d 48 12 32 64 ad 4a 05
       5.029545e-37 2.375359e-22 8.514758e-09 9.529841e-36
000100 fa c4 fa 03 57 90 b1 86 e1 a3 98 04 37 c3 69 10
       1.4738903e-36 -6.679209e-35 3.5885527e-36 4.6101536e-29
000110 8a 93 62 8e 0d 5c b1 05 70 bd b5 05 e0 28 57 05
       -2.7927688e-30 1.6678814e-35 1.7090747e-35 1.0116759e-35
000120 56 8e 86 04 bf fc 1c 85 59 a7 a7 05 fa c6 a5 08
       3.1633964e-36 -7.381507e-36 1.5766078e-35 9.977355e-34
000130 07 14 9c 04 f7 dc 47 0d e4 d8 8f 87 54 64 8d 05
       3.6693816e-36 6.1587586e-31 -2.1643725e-34 1.3296431e-35
000140 e8 c3 b5 08 81 b3 1a 0c ed b1 cc 05 d6 0a 4a 05
       1.0939599e-33 1.1917746e-31 1.9249427e-35 9.4999846e-36
000150 33 ed 2a 87 09 c1 3e 86 98 57 16 0a f2 8e df 05
       -1.2859085e-34 -3.5876848e-35 7.238712e-33 2.1023329e-35
000160 8f 89 f2 0d 18 41 53 05 3f 09 bf 0b 13 c8 91 8c
       1.49475175e-30 9.933128e-36 7.3584436e-32 -2.2461203e-31
000170 ba 9a fa 87 59 bc 5e 85 10 0f fb 84 f6 c7 10 06
       -3.770676e-34 -1.0472984e-35 -5.902365e-36 2.7230298e-35
000180 ea c5 00 85 11 ac f9 08 d6 b9 b0 84 14 79 f9 84
       -6.054882e-36 1.5026595e-33 -4.1548065e-36 -5.865081e-36
000190 5a 2a b8 0a 35 24 e1 05 c9 00 02 05 a5 7a b3 03
       1.7734486e-32 2.1172199e-35 6.112715e-36 1.0548832e-36
0001a0 40 58 5b 04 14 d9 ce 08 90 91 48 8a b7 d4 d8 06
       2.5783849e-36 1.2449209e-33 -9.657027e-33 8.1562726e-35
0001b0 4c f7 9d 05 48 fb 52 84 93 46 dd 05 16 51 af 87
       1.4855052e-35 -2.4800764e-36 2.0808665e-35 -2.6378731e-34
0001c0 8a 54 5d 89 13 13 36 07 ad 6e cb 87 80 47 80 85
       -2.6641657e-33 1.3697764e-34 -3.0609095e-34 -1.2063327e-35
0001d0 ac ed 0a 89 a4 90 c3 8a aa f5 24 87 ef 94 82 88
       -1.6722899e-33 -1.8832225e-32 -1.2410183e-34 -7.8591045e-34
0001e0 ef a6 af 88 89 d1 b6 85 2c 69 a1 04 5c 5a 6c 89
       -1.0571675e-33 -1.7192169e-35 3.7947503e-36 -2.8449953e-33
0001f0 16 e9 43 03 2f 25 44 06 b5 89 3e 09 a5 0f 13 8d
       5.757292e-37 3.689082e-35 2.2935168e-33 -4.5316704e-31
000200 16 c1 0c 86 5d 0b f5 07 57 0a e1 86 15 ee 92 16
       -2.647293e-35 3.6870182e-34 -8.4650786e-35 2.3737823e-25
000210 70 a0 8d 28 33 06 27 86 4a f7 4a 85 0e 51 c8 07
       1.5723723e-14 -3.1413764e-35 -9.543414e-36 3.0140295e-34
000220 97 3b 04 91 68 62 9b 15 87 fc 47 05 27 8c 07 14
       -1.0431326e-28 6.275926e-26 9.403317e-36 6.8433984e-27
000230 0d 96 cc 0c fe bd 22 aa 38 28 26 19 e1 15 34 08
       3.1521485e-31 -1.4454407e-13 8.590121e-24 5.41925e-34
000240 33 b0 97 9c 35 74 00 9d 70 a9 34 8b b5 95 fd 85
       -1.0037888e-21 -1.7000737e-21 -3.479421e-32 -2.3847e-35
000250 66 16 04 9b b0 6a 87 0a 7d 33 47 20 63 57 bb 1c
       -1.0926021e-22 1.3040159e-32 1.6872992e-19 1.2397211e-21
000260 41 2f 95 ab 55 51 9a 8d 59 36 96 ac 42 e4 63 2c
       -1.0600202e-12 -9.510563e-31 -4.26929e-12 3.2385349e-12
000270 c8 b4 d2 15 46 4c b9 85 6a 14 2b 11 a2 fd 38 0d
       8.510355e-26 -1.7425335e-35 1.3495812e-28 5.7004677e-31
000280 5c 55 4b 8f b5 99 b7 16 67 47 56 04 12 7b 8c 86
       -1.0025112e-29 2.9662247e-25 2.5188365e-36 -5.284298e-35
000290 c8 40 e6 25 c1 fe 8a 03 40 07 62 18 a0 16 11 06
       3.9942537e-16 8.1694e-37 2.9213476e-24 2.728809e-35
0002a0 66 be 1c 06 f3 f8 21 1d d0 65 bc 05 1b 56 aa 99
       2.9480222e-35 2.1436876e-21 1.7716835e-35 -1.7612366e-23
0002b0 da 1d 79 87 b9 cd 60 14 a8 b2 67 84 36 04 d5 21
       -1.874145e-34 1.13496816e-26 -2.7235954e-36 1.4434556e-18
0002c0 82 5f b0 a4 b0 db 45 1e c5 51 f7 22 ac 1d 29 85
       -7.648963e-17 1.04745235e-20 6.703606e-18 -7.951792e-36
0002d0 b5 70 3d a0 85 f8 8e 21 0a aa 98 04 92 b6 4b 0e
       -1.6046214e-19 9.688077e-19 3.5891184e-36 2.5109586e-30
0002e0 0d 77 2e 11 05 7b 57 05 28 ed d4 8c 50 c4 3c a9
       1.3762865e-28 1.01318465e-35 -3.2806505e-31 -4.191466e-14
0002f0 92 59 ce 04 da ef 3e 16 5e 64 c7 1c a5 13 30 19
       4.8512625e-36 1.5423762e-25 1.319466e-21 9.102954e-24
000300 68 78 bd 26 b6 e4 8d 85 89 98 30 39 ae 66 36 03
       1.3147146e-15 -1.3343591e-35 0.00016841492 5.3602863e-37
000310 1d 32 86 84 14 5d 19 b9 b9 95 1d 8d 5c 27 3c 90
       -3.154927e-36 -0.00014625891 -4.855958e-31 -3.7106784e-29
000320 91 c5 0f 39 15 a5 72 39 9d db 5f 91 30 54 b0 84
       0.00013711142 0.00023140416 -1.7659272e-28 -4.1454715e-36
000330 c0 f0 33 b9 c0 69 b5 39 38 dd 6f b9 fe 6b 11 05
       -0.00017160457 0.000346018 -0.00022875227 6.837702e-36
000340 56 d1 dc 84 c4 ac 31 84 0a ad 72 8c f2 3a 25 06
       -5.1913996e-36 -2.088558e-36 -1.8695074e-31 3.1076357e-35
000350 64 1d c8 b7 13 d1 55 0c af 48 a7 05 b1 66 75 85
       -2.3855544e-05 1.6471839e-31 1.5731304e-35 -1.1538706e-35
000360 65 26 91 85 c1 15 ca 38 d1 8d 05 06 88 e9 6c 85
       -1.3649838e-35 9.6361626e-05 2.511871e-35 -1.11395596e-35
000370 3c e1 d5 84 b0 50 15 b9 51 76 3e 85 8e b6 24 86
       -5.0282904e-36 -0.00014239806 -8.955488e-36 -3.0979092e-35
000380 fa 20 f3 b8 22 92 8a b8 dc 44 64 39 14 14 44 85
       -0.00011593285 -6.607572e-05 0.00021769427 -9.2195635e-36
000390 d5 3c 5c 05 2d cd 89 95 c0 96 b1 85 35 76 ec 06
       1.03555234e-35 -5.565757e-26 -1.6700377e-35 8.8947023e-35
0003a0 d7 08 83 85 7c 2f 83 b9 1b e3 95 84 1e 27 be 38
       -1.2322428e-35 -0.00025021646 -3.5238295e-36 9.067192e-05
0003b0 1f 0b 20 06 8b 5b 72 83 3c 7a 32 1a 8a f1 38 39
       3.0100826e-35 -7.1222494e-37 3.6908277e-23 0.00017637588
0003c0 18 92 25 39 60 ec cd b8 36 4b c5 03 64 fb 5d 39
       0.0001579005 -9.81919e-05 1.1595887e-36 0.00021169853
0003d0 eb c7 da b8 b2 cb 41 39 83 3a 32 04 99 e5 c6 85
       -0.00010432288 0.00018481797 2.0950667e-36 -1.8704171e-35
0003e0 49 83 2d 05 9a 30 1d 04 ec 72 d1 b8 b2 27 f8 04
       8.158534e-36 1.8477578e-36 -9.9873025e-05 5.8340974e-36
0003f0 f5 0c 59 85 dc 2b df 94 bb a1 0c b9 d6 b0 9f 04
       -1.0205671e-35 -2.2534545e-26 -0.0001341169 3.754312e-36

hidden_layers.2.bias f4 [1, 64]
000000 68 c8 27 be df 3a 0d b5 48 e2 4a 3e c4 5d 7b ba
       -0.16385043 -5.261226e-07 0.19812882 -0.00095888623
000010 9a ee d8 bc 4b 72 57 3e e4 a2 39 b4 60 42 02 ad
       -0.026480962 0.21039693 -1.7288727e-07 -7.404383e-12
000020 84 0b 8b 3c 26 c8 77 3e 8d a7 19 b4 33 79 86 ba
       0.016973265 0.24197444 -1.431019e-07 -0.0010259509
000030 77 b3 5e 3e e1 d8 0a 3e 69 1a 8c 3d d8 c7 62 b9
       0.21748148 0.13559295 0.06840975 -0.00021627487
000040 21 90 28 bc 5e 9d 17 bb 68 f3 64 bc b3 4e 65 ad
       -0.010288269 -0.002313457 -0.013974048 -1.3034618e-11
000050 fa 8b 20 3e 1b 79 5c bb 87 76 10 bb 01 23 bd ba
       0.15678397 -0.003364152 -0.0022043304 -0.0014429988
000060 60 e5 25 bb de dd 44 3e 90 a5 ae bb ee 47 91 ba
       -0.002531372 0.1922526 -0.005329795 -0.0011084059
000070 e9 24 1e ba fa a1 35 3c 42 2f bd bb 71 49 f1 b8
       -0.0006032722 0.0110859815 -0.005773456 -0.00011505455
000080 e1 28 2a 3e 6a a0 8c 3d b7 56 e9 bb 72 9c 0e ba
       0.16617157 0.06866534 -0.007120933 -0.0005440182
000090 a7 44 e2 bb d2 9d 99 bb 38 60 57 bb ec 5a e8 3c
       -0.0069051567 -0.004688003 -0.0032863747 0.028363667
0000a0 a6 a7 1f bc c7 56 24 3e 40 56 8a b8 81 85 6c 3e
       -0.00974456 0.16048728 -6.596418e-05 0.23097803
0000b0 45 c8 24 b8 f5 14 d3 b9 2a f9 5c bc 40 f1 07 3e
       -3.9287163e-05 -0.0004026067 -0.01348714 0.13275623
0000c0 96 d8 b8 3d cc 73 2c 3e 14 e5 24 bb e8 a1 4f 3e
       0.090256855 0.16841048 -0.0025160955 0.20276606
0000d0 15 78 5b 3e 23 9a 5d 3e a7 b0 ae b8 75 45 65 b8
       0.21432526 0.2164083 -8.3298706e-05 -5.466254e-05
0000e0 95 c6 08 bb 72 9c 2f ab e7 8c 8b 3e 81 89 4b ba
       -0.0020870317 -6.23896e-13 0.27255937 -0.0007764325
0000f0 d3 64 e3 b6 d3 e8 3f bb 13 c0 21 3e c3 63 c2 bb
       -6.7768647e-06 -0.002928306 0.15795927 -0.0059323027

out_layer.weight f4 [64, 7]
000000 f5 12 53 bd 5e 31 f9 3b 33 c5 21 bc 56 0a 29 3c
       -0.05153175 0.007604762 -0.009873676 0.010317406
000010 7a 70 49 bc bd db 4a 3d d4 51 00 3c 5e 06 3d 07
       -0.012294883 0.049525965 0.007832009 1.4220651e-34
000020 51 9d ae 89 44 73 29 08 6e c7 99 87 aa db aa 86
       -4.2036916e-33 5.099208e-34 -2.3138096e-34 -6.426966e-35
000030 c9 74 a6 88 1a af cb 85 ae d8 f0 3e 8b 04 a0 bf
       -1.0018218e-33 -1.915435e-35 0.47040313 -1.2501386
000040 1f 58 b3 bf 04 b7 c6 3d 26 2a a9 3e cc af fc 3e
       -1.4011267 0.09702876 0.3303997 0.49352872
000050 bb ca 0c 3f 68 df 6f a1 3d 2f b7 9d 4a 08 67 16
       0.5499684 -8.1272025e-19 -4.848854e-21 1.8662647e-25
000060 8d fd 35 91 bb 39 30 96 ee 89 09 a4 d3 07 53 8d
       -1.4356514e-28 -1.4235383e-25 -2.982397e-17 -6.5028813e-31
000070 91 cd 46 39 5c e2 92 39 47 45 06 3b db fb 7e 37
       0.00018959331 0.0002801594 0.002048807 1.5198219e-05
000080 30 af c2 39 35 9c 7d ba dd 3f 90 3a 45 a6 89 bf
       0.00037133088 -0.0009674461 0.0011005361 -1.0753866
000090 15 67 35 3f 5a a4 80 3f eb de 21 3e f7 c6 58 be
       0.70860416 1.0050156 0.15807693 -0.21169649
0000a0 41 17 de bf a5 8a 90 bf 18 71 69 9e 87 63 c1 9e
       -1.7350847 -1.1292311 -1.23583045e-20 -2.0475833e-20
0000b0 4c d7 96 1b 9e 19 61 9e a0 74 6d 1d 6e 7d 4e a2
       2.495455e-22 -1.1916698e-20 3.1426983e-21 -2.7984608e-18
0000c0 45 71 a9 9e 93 2c a8 a1 83 1f 01 a1 50 c7 01 21
       -1.7940418e-20 -1.1395922e-18 -4.3748605e-19 4.397069e-19
0000d0 53 64 fc 20 b1 e6 61 22 62 f5 11 a0 6e 6d b2 a1
       4.275685e-19 3.0615313e-18 -1.2363168e-19 -1.2090715e-18
0000e0 83 6c ff 3d 4b a3 5c be 9f 1e b2 3d aa b4 9d bf
       0.12471869 -0.21546666 0.08697247 -1.2320759
0000f0 91 44 e8 bf 77 d7 05 3f 0d f4 19 3f a9 50 9a 3e
       -1.8145925 0.522819 0.60138017 0.30139664
000100 70 37 13 bf 48 f5 c8 bf 08 d2 5f 3e c0 a3 e7 3d
       -0.57506466 -1.5699854 0.21857464 0.1131053
000110 2f f5 ea 3e 26 44 03 3f 92 9a 4b ac 71 cd 32 ad
       0.45890185 0.5127586 -2.8933839e-12 -1.0163746e-11
000120 69 50 48 ac 36 e4 a4 2b 0f de 39 2c 10 3a a9 2c
       -2.8466346e-12 1.1716242e-12 2.6413349e-12 4.809715e-12
000130 bc dc aa ac af 69 fe 32 5b d5 87 b4 cb 5f 3e 33
       -4.856197e-12 2.9617551e-08 -2.5300946e-07 4.4324945e-08
000140 81 2e fb 31 95 c3 05 33 13 c5 98 b2 30 84 79 b4
       7.3103483e-09 3.1144356e-08 -1.7784748e-08 -2.3238022e-07
000150 e9 79 93 3e 36 ac 92 bf 0a 8b 9b bf e6 dc 1a 3d
       0.28803948 -1.1458805 -1.2151806 0.03780832
000160 33 61 8c 3e 8e c8 08 3f a0 1e da 3e 29 ef e7 3e
       0.27417907 0.5343102 0.4260149 0.45299652
000170 cb 67 8d bf df 69 79 bf da 67 b1 be 8f 49 a6 be
       -1.10473 -0.9742717 -0.34649545 -0.32477996
000180 6c c7 1a 3f a4 0d 1c 3f 84 1c 8f 3e 05 57 71 bf
       0.60460544 0.60958314 0.27951443 -0.94273406
000190 d6 56 c4 be 44 bb 4d bf ec cc 61 bf 9a d5 27 3f
       -0.383475 -0.8036387 -0.8820331 0.65560305
0001a0 28 04 45 3f 88 a5 9c 2b 6d 2c 85 a2 af 3e 0d 23
       0.76959467 1.1130411e-12 -3.609676e-18 7.656899e-18
0001b0 05 12 d3 9d fa cd 78 27 73 47 73 33 93 b8 78 a2
       -5.5869867e-21 3.4528574e-15 5.664283e-08 -3.370798e-18
0001c0 19 3f 5d 39 85 77 16 bb 23 d9 46 3b c2 ca bd 3a
       0.00021099708 -0.0022959423 0.0030341826 0.0014479982
0001d0 a4 e5 2c b9 1b 19 3c bb 2e 9f 64 3b f3 31 f7 25
       -0.00016488746 -0.0028701487 0.0034884918 4.2881517e-16
0001e0 35 94 c1 29 30 72 b7 ac 22 8e ca 15 44 50 aa 10
       8.5966316e-14 -5.21385e-12 8.1811396e-26 6.7176846e-29
0001f0 1b 29 c1 2e bd f7 a8 96 ec 4a 9c 3b 86 d1 1c 39
       8.783926e-11 -2.7298209e-25 0.0047696736 0.00014955373
000200 09 f0 36 bc 6e 6d 59 3c 8a da 70 bb 8f 67 8e bc
       -0.011165627 0.013270719 -0.0036751353 -0.017383365
000210 b3 7f 57 3b 7e e2 09 93 7e 7c f7 10 6e fb 11 91
       0.003288251 -1.74035e-27 9.761613e-29 -1.1515961e-28
000220 74 47 dd 0e b2 ae 51 13 64 87 25 12 34 58 0d 94
       5.4549513e-30 2.646564e-27 5.22317e-28 -7.136076e-27
000230 36 8f e8 3e af 2d b0 bf a2 3d 90 bf 80 49 66 3d
       0.4542176 -1.3763942 -1.1268809 0.05622244
000240 63 2a 0c 3e 4d fd f5 3e 63 85 1f 3f 1b 1b f5 37
       0.13688044 0.48044816 0.62312907 2.9218898e-05
000250 77 ca 03 b8 09 50 28 37 99 16 21 b8 1c c4 be b6
       -3.1421394e-05 1.0032215e-05 -3.8406437e-05 -5.6852714e-06
000260 22 cf 97 38 1a 19 89 37 31 82 ec a7 c1 40 2b 9c
       7.2388226e-05 1.6343361e-05 -6.5644312e-15 -5.6662846e-22
000270 dc ab 74 93 11 09 3c a7 9f 2b 11 9e ef a9 df 34
       -3.0881863e-27 -2.6095156e-15 -7.685257e-21 4.166063e-07
000280 f1 70 06 9a 74 4b 14 b7 92 c9 c2 b8 b2 62 6f 32
       -2.7801784e-23 -8.839055e-06 -9.288186e-05 1.3934072e-08
000290 89 7f 8e 31 ed ea 6b b7 5e 65 1e 39 a1 69 2a b6
       4.147243e-09 -1.4061789e-05 0.00015105816 -2.5393458e-06
0002a0 12 91 34 b7 17 fb 19 37 98 f8 47 b8 86 d6 d4 33
       -1.0762613e-05 9.177972e-06 -4.767682e-05 9.911041e-08
0002b0 8e 6a 58 b6 84 be 1d b8 94 ed 1e 37 a4 4c a2 3e
       -3.2248531e-06 -3.760915e-05 9.472849e-06 0.31699097
0002c0 b1 8e 8d bf ba 7e 9e bf f6 2f 1a 3e c8 78 97 3e
       -1.1059171 -1.2382424 0.15057358 0.29584336
0002d0 87 9b f3 3e 89 ca f5 3e b3 ed 6a b7 f7 f8 ac 35
       0.47579595 0.48006085 -1.40028305e-05 1.2887457e-06
0002e0 62 14 3c 37 3b fa ac 34 dd d1 da b4 d0 14 05 39
       1.1210419e-05 3.2219563e-07 -4.075836e-07 0.00012691622
0002f0 1b 28 ac b5 ce 0e f6 b2 3b 74 3f 1f 92 84 a4 12
       -1.2826671e-06 -2.8644902e-08 4.0541967e-20 1.0382536e-27
000300 81 0a 28 8e 49 3e 24 23 75 24 70 32 eb fe 72 14
       -2.0712656e-30 8.903647e-18 1.3978128e-08 1.22681514e-26
000310 5b a8 bc 8e f2 28 f7 8d 5c 02 0a 88 ae 33 08 07
       -4.65077e-30 -1.52324075e-30 -4.153064e-34 1.024669e-34
000320 84 e9 82 89 a0 98 c5 8a e2 30 81 8b 3e 12 a5 3e
       -3.151596e-33 -1.9027821e-32 -4.9762543e-32 0.3224048
000330 dc 77 c7 bd 9a fa f3 be ef 91 9e bf 30 ce d8 bf
       -0.09739658 -0.4765213 -1.2388285 -1.6937923
000340 87 8e 1e 3f e9 72 32 3f 23 8d ce 12 b8 e6 7c 97
       0.6193623 0.6970659 1.3035221e-27 -8.17168e-25
000350 22 8f 7c 19 4c 3e 77 90 a5 f5 56 18 20 fe e1 97
       1.3057e-23 -4.8760153e-29 2.778287e-24 -1.4604434e-24
000360 24 b0 af 19 82 fb ac 0d 4b 8f 3d 08 4d 3c a1 09
       1.8165719e-23 1.0660867e-30 5.704356e-34 3.8816047e-33
000370 b3 0d 15 8d 66 0c 91 06 74 40 12 09 cd fd 92 08
       -4.593066e-31 5.4561156e-35 1.7604416e-33 8.846724e-34
000380 f9 3e c5 3e c3 35 89 bf 67 16 a7 bf b7 b8 5c bc
       0.38524607 -1.0719532 -1.3053712 -0.013471774
000390 54 d9 13 3e 4a 66 e8 3e 6e f3 0d 3f e5 f9 b5 3e
       0.14438373 0.4539054 0.5544957 0.35542217
0003a0 fe 9f 84 bf 71 63 1f bf 71 38 46 bf 31 24 39 bf
       -1.0361326 -0.6226111 -0.7742987 -0.7232085
0003b0 13 eb 25 3f 01 9c 28 3f c9 3c a6 be 1c 68 e5 3e
       0.6481182 0.65863043 -0.3246825 0.44805992
0003c0 27 b5 46 3f b3 6b 99 bf 9c a0 49 c0 8b a4 1c 3e
       0.77620167 -1.1985992 -3.1504278 0.15297143
0003d0 e1 c6 50 3e 46 f8 12 88 80 8f cd 89 bd 42 dc 89
       0.20388366 -4.422712e-34 -4.94869e-33 -5.3025834e-33
0003e0 3e 36 14 89 47 6e bf 07 dc 5b 00 89 4d b4 19 09
       -1.7840357e-33 2.88033e-34 -1.5450632e-33 1.8501482e-33
0003f0 02 b9 cd 10 d0 90 13 96 7d cb 8d 0c 30 70 15 0b
       8.114329e-29 -1.192026e-25 2.184696e-31 2.8780757e-32

out_layer.bias f4 [1, 7]
000000 41 09 c6 bb 0f c0 d4 3f 6b 07 0b 3f 42 b3 95 3f
       -0.0060435836 1.6621112 0.54308194 1.169533
000010 40 1c c4 3f 3c 8d 75 bf 54 e8 ed bf
       1.5321121 -0.9591863 -1.8586526
